app/src/main/assets/activity_recognition_model.tflite (tflite, 162264 bytes, 10 tensors)

arith.constant5 f4 [64, 1, 3, 9]
0	0x3d89d3a2	0.06729819
1	0x3eb8fd93	0.36130962
2	0x3e065621	0.13118793
3	0x3d9c14f6	0.076211855
4	0xbe024173	-0.1272028
5	0xbe30637c	-0.1722545
6	0x3c33712a	0.010952273
7	0xbe156a7e	-0.14591405
8	0xbe0a6ffd	-0.13519283
9	0xbc442014	-0.011970539
10	0x3d5b43a0	0.05353129
11	0xbde12d7f	-0.10995006
12	0x3e0a70a5	0.13519533
13	0x3e06a83e	0.13150117
14	0x3ddbf3b9	0.10739846
15	0xbdd73c41	-0.105095394
16	0x3c0fc4c6	0.008774942
17	0xbd7ff1f4	-0.062486604
18	0xbdae2d00	-0.08504677
19	0x3e8507b3	0.25982437
20	0xbe00d9d4	-0.12583095
21	0x3dad0bce	0.08449517
22	0x3e235cbf	0.15953349
23	0xbdc68411	-0.096931584
24	0x3cc5a629	0.024127083
25	0x3e2c7617	0.16841923
26	0xbe09283a	-0.13394251
27	0xbe3bb6ce	-0.18331453
28	0x3d13810b	0.036011737
29	0x3ddd23bd	0.10797832
30	0xbcb493c2	-0.022043113
31	0xbd202c1a	-0.03910456
32	0xbdd58c6d	-0.10427175
33	0xbcc7ddff	-0.024397848
34	0x3e50ee48	0.20403397
35	0xbd028282	-0.031862743
36	0xbe5f9ce9	-0.218372
37	0xbe1fc543	-0.15602593
38	0xbe487e31	-0.19579388
39	0xbdd57d31	-0.10424269
40	0xbc8180eb	-0.015808543
41	0xbd58d3d5	-0.052936394
42	0xbdbc6410	-0.09198773
43	0x3db1ccc6	0.086816356
44	0x3d9c8e6f	0.076443546
45	0xbd66a84c	-0.056312844
46	0xbca01af7	-0.019544108
47	0xbe5b453a	-0.21413127
48	0x3b0e834e	0.0021745744
49	0xbe1261af	-0.14295076
50	0xbcfa55cb	-0.030558487
51	0xbe1a2487	-0.15052997
52	0x3e409836	0.18808064
53	0xbd116776	-0.03549906
54	0xbe104629	-0.14089264
55	0xbe258b04	-0.16166312
56	0x3db8933c	0.09012458
57	0x3dc31cac	0.09526953
58	0x3d18b61a	0.03728304
59	0xbd0dd526	-0.034627102
60	0x3d0e0b93	0.034679007
61	0xbe2c2412	-0.16810635
62	0x3e06bbf7	0.1315764
63	0xbe157142	-0.14593986
64	0x3c97a667	0.018511964
65	0xbd9d79fc	-0.07689282
66	0x3db1e279	0.08685774
67	0xbe21ffe0	-0.15820265
68	0x3e8d02cb	0.27541193
69	0xbdf99256	-0.121861145
70	0xbbb86fb0	-0.0056285486
71	0x3dc11ac7	0.094289355
72	0xbe9deccc	-0.30844724
73	0x3b999f9c	0.0046882164
74	0x3e024d09	0.12724699
75	0x3dd92cf6	0.10604279
76	0x3dee2194	0.11627498
77	0x3e78aa88	0.24283803
78	0xbd9c19cb	-0.07622107
79	0xbdc439e7	-0.095813565
80	0x3e3a9c12	0.18223599
81	0x3e3bac8d	0.18327542
82	0xbd851daf	-0.06499802
83	0xbc19054b	-0.009339641
84	0x3d2e8d8b	0.042615455
85	0x3df1b613	0.11802306
86	0xbdb0e80b	-0.08638009
87	0x3c0f2628	0.0087371245
88	0x3e24b7d8	0.16085756
89	0x3e6dfcd2	0.23240975
90	0xbc7d230c	-0.01545025
91	0x3c81bcce	0.0158371
92	0xbd5e4f3c	-0.054274783
93	0x3e5afd62	0.2138572
94	0x3d75960d	0.059957553
95	0xbe1e4bbb	-0.15458576
96	0x3d411915	0.04714306
97	0x3d13a9cf	0.036050614
98	0x3e31ca44	0.17362314
99	0x3d06f883	0.032951843
100	0xbe020cc7	-0.12700187
101	0xbd9fbb5f	-0.0779941
102	0x3e22cd98	0.1589874
103	0xbd70f2fc	-0.058825478
104	0xbe001c1c	-0.12510723
105	0x3e4db0f3	0.20087032
106	0x3d4ba702	0.049719818
107	0x3e32196a	0.17392507
108	0xbea0e6b5	-0.31426015
109	0xbd20a08d	-0.039215613
110	0xbe154e0a	-0.14580551
111	0x3c1b3fec	0.009475689
112	0xbdbd75f3	-0.09251013
113	0xbddd12c9	-0.107945986
114	0xbe9b675a	-0.30352288
115	0xbe303c3c	-0.17210478
116	0x3daef486	0.08542733
117	0xbeb42ec9	-0.35191944
118	0x3e2401f3	0.16016369
119	0x3d2f53d6	0.04280456
120	0x3ca6dc1f	0.020368634
121	0x3c864c65	0.01639385
122	0x3d57f40a	0.05272297
123	0xbee411d8	-0.44544864
124	0xbe119efa	-0.14220801
125	0xbe257e6d	-0.16161509
126	0xbeb65bdb	-0.35616955
127	0x3cd7e374	0.026353575
128	0xbe24a0e2	-0.16076997
129	0xbdcdba52	-0.100453034
130	0xbdcb270b	-0.09919556
131	0x3d182d49	0.037152562
132	0xbed51371	-0.41616395
133	0x3cad4657	0.021151705
134	0xbe5d7c92	-0.21629551
135	0xbe984be8	-0.29745412
136	0xbe2dbb89	-0.1696607
137	0x3dbd2b78	0.09236807
138	0x3cef3f3e	0.02920496
139	0xbd50c2ed	-0.050967146
140	0xbc2444e9	-0.010026195
141	0x3e55c9c1	0.20877744
142	0xbde47b88	-0.11156374
143	0xbe5457e6	-0.20736656
144	0xbe9707ea	-0.29498225
145	0xbe677973	-0.22604923
146	0x3e044ea4	0.12920624
147	0x3de6dd79	0.11272711
148	0xbd2104aa	-0.03931109
149	0x3d980053	0.07421937
150	0xbca9ae6c	-0.020713054
151	0x3dada587	0.084788375
152	0xbe7af299	-0.24506606
153	0xbe0ea5f2	-0.1393049
154	0xbe37e1e7	-0.17957269
155	0xbb9c494c	-0.00476948
156	0xbd899a59	-0.067188926
157	0x3b9ce6b2	0.004788243
158	0x3e15955e	0.1460776
159	0x3e7dbf82	0.24780086
160	0xbd04107d	-0.032242287
161	0xbd8dc1a6	-0.06921701
162	0x3cbc3dd7	0.022978706
163	0xbe6bf587	-0.2304288
164	0x3db3eb2b	0.08785089
165	0x3cd699d7	0.026196403
166	0x3c0c743f	0.008572637
167	0x3ca75e38	0.02043067
168	0xbd1aaf3e	-0.03776478
169	0x3d4da860	0.050209403
170	0xbe4a4a98	-0.19755018
171	0x3df0543e	0.11734818
172	0xbe5708ca	-0.20999447
173	0x3d52eeee	0.051497392
174	0x3d9f1356	0.0776736
175	0x3df244e6	0.118295476
176	0x3c66fa4b	0.01409776
177	0x3c2af22e	0.010433717
178	0xbd8c54f7	-0.06852143
179	0x3d06fda2	0.032956727
180	0xbe4ebd96	-0.20189509
181	0xbd58ddd9	-0.052945945
182	0x3d0262b3	0.03183241
183	0x3ce639e6	0.02810378
184	0x3e38791d	0.18014951
185	0xbda239ae	-0.07921158
186	0x3e1f890c	0.15579623
187	0xbdbe3a96	-0.09288518
188	0xbe146130	-0.14490199
189	0x3c3b3366	0.011425829
190	0x3d9a5ef6	0.075376436
191	0x3d5260c1	0.051361803
192	0x3e15f165	0.14642866
193	0xbdd41244	-0.103550464
194	0xbdf55514	-0.11979118
195	0x3db76b3d	0.08956001
196	0xbe228824	-0.15872246
197	0x3ef5b24a	0.47987586
198	0xbdeded94	-0.1161758
199	0xbd21fcb7	-0.03954765
200	0xbdd0feb4	-0.10204831
201	0xbd59bfc6	-0.053161405
202	0x3d75f329	0.06004635
203	0x3dd63327	0.10458975
204	0xbe581a5a	-0.21103802
205	0xbd53a7c7	-0.051673677
206	0x3f069e48	0.5258527
207	0x3d94e713	0.072706364
208	0x3e20ae5d	0.15691514
209	0xbd7c4d84	-0.061597362
210	0xbdd9da99	-0.10637397
211	0xbd5df4d8	-0.05418858
212	0x3d11957f	0.03554296
213	0xbe536d3b	-0.20647137
214	0xbde0d4c4	-0.10978082
215	0x3f10f4d7	0.56623596
216	0x3d87927d	0.06619737
217	0xbe6a234b	-0.22865026
218	0xbdce3037	-0.1006779
219	0xbaee28d2	-0.0018170124
220	0x3e6bc3e8	0.23023951
221	0xbd4b9b17	-0.049708452
222	0xbe36485d	-0.17801042
223	0xbe290c2c	-0.1650855
224	0x3b1c9638	0.0023893248
225	0xbcba5dda	-0.02274983
226	0xbe8befbd	-0.27331343
227	0x3d25a613	0.040441584
228	0x3d685546	0.056721948
229	0x3e185e6d	0.1487977
230	0x3cd5d852	0.026104126
231	0x3db3b69d	0.08775065
232	0xbd63efbe	-0.055648558
233	0xbe3fb13d	-0.18719955
234	0x3da3b653	0.0799376
235	0xbe54cf7f	-0.20782278
236	0xbe04e69e	-0.12978598
237	0x3e356da1	0.17717601
238	0x3d03f4e3	0.032215964
239	0x3e44ea3e	0.19229981
240	0xbe0f0abe	-0.13968942
241	0xbe3c9681	-0.18416788
242	0x3dd95684	0.10612205
243	0x3d867d25	0.06566838
244	0x3c968f07	0.018378748
245	0x3e9a2ddf	0.30113122
246	0xbdc918f0	-0.098192096
247	0x3d107c07	0.03527453
248	0xbe4996da	-0.19686452
249	0xbe565bc0	-0.20933437
250	0x3d4fe018	0.05075082
251	0x3defa782	0.117018715
252	0xbe12c988	-0.1433469
253	0x3db5f175	0.08883945
254	0x3e36f8d2	0.17868355
255	0xbe2b9d30	-0.16759181

arith.constant6 f4 [64]
0	0x00000000	0.0
1	0x00000000	0.0
2	0x00000000	0.0
3	0x00000000	0.0
4	0x00000000	0.0
5	0x00000000	0.0
6	0x00000000	0.0
7	0x00000000	0.0
8	0x00000000	0.0
9	0x00000000	0.0
10	0x00000000	0.0
11	0x00000000	0.0
12	0x00000000	0.0
13	0x00000000	0.0
14	0x00000000	0.0
15	0x00000000	0.0
16	0x00000000	0.0
17	0x00000000	0.0
18	0x00000000	0.0
19	0x00000000	0.0
20	0x00000000	0.0
21	0x00000000	0.0
22	0x00000000	0.0
23	0x00000000	0.0
24	0x00000000	0.0
25	0x00000000	0.0
26	0x00000000	0.0
27	0x00000000	0.0
28	0x00000000	0.0
29	0x00000000	0.0
30	0x00000000	0.0
31	0x00000000	0.0
32	0x00000000	0.0
33	0x00000000	0.0
34	0x00000000	0.0
35	0x00000000	0.0
36	0x00000000	0.0
37	0x00000000	0.0
38	0x00000000	0.0
39	0x00000000	0.0
40	0x00000000	0.0
41	0x00000000	0.0
42	0x00000000	0.0
43	0x00000000	0.0
44	0x00000000	0.0
45	0x00000000	0.0
46	0x00000000	0.0
47	0x00000000	0.0
48	0x00000000	0.0
49	0x00000000	0.0
50	0x00000000	0.0
51	0x00000000	0.0
52	0x00000000	0.0
53	0x00000000	0.0
54	0x00000000	0.0
55	0x00000000	0.0
56	0x00000000	0.0
57	0x00000000	0.0
58	0x00000000	0.0
59	0x00000000	0.0
60	0x00000000	0.0
61	0x00000000	0.0
62	0x00000000	0.0
63	0x00000000	0.0

arith.constant7 f4 [12, 32]
0	0x3e64d205	0.22345741
1	0x3f0e10f2	0.55494606
2	0x3d2efffd	0.0427246
3	0xbe5c7a75	-0.21531089
4	0xbf379a6d	-0.7172001
5	0xbd81ba4c	-0.063343614
6	0xbe3cd4f6	-0.18440613
7	0x3eb479c3	0.35249147
8	0x3e8e7a14	0.27827513
9	0x3e57e8e5	0.21084936
10	0x3d8c1aed	0.06841073
11	0xbf40ade3	-0.7526533
12	0x3e613b16	0.21995196
13	0x3ec3e763	0.38262472
14	0xbeb9b8c6	-0.36273783
15	0xbebc1979	-0.36738184
16	0x3e1430cd	0.14471741
17	0xbd5449bf	-0.051828142
18	0x3ebbacdb	0.36655316
19	0x3e4918ce	0.19638368
20	0xbf49beaa	-0.78806555
21	0x3d05623e	0.032564394
22	0xbeaeaf47	-0.341181
23	0xbf258612	-0.646577
24	0xbf1ecb0f	-0.6202859
25	0x3ec13534	0.37735903
26	0x3d4b679c	0.049659356
27	0x3eaad9cf	0.333693
28	0x3e029b22	0.12754491
29	0xbe1e08b3	-0.15433006
30	0xbd3a6056	-0.04550203
31	0x3ec8e66d	0.392383
32	0x3e9d4aef	0.30721232
33	0x3eb11585	0.3458673
34	0xbdfef6c3	-0.1244941
35	0x3e9e6c2e	0.3094191
36	0xbe2172a9	-0.15766396
37	0xbe8b6764	-0.27227318
38	0x3eb51dd4	0.3537432
39	0xbef936a2	-0.48674494
40	0xbe936a17	-0.28791878
41	0xbf06d15f	-0.52663225
42	0xbe43a65d	-0.19106431
43	0xbe76f6c9	-0.24117579
44	0x3ea68d00	0.3252945
45	0xbea8a853	-0.3294092
46	0xbe654ee3	-0.22393374
47	0xbee32cd4	-0.4437014
48	0x3e2b91ef	0.16754888
49	0x3ed2686c	0.41095293
50	0xbeefb68b	-0.46818957
51	0x3e8c25f2	0.273727
52	0x3cf5dd3e	0.030012723
53	0xbec21ce9	-0.37912682
54	0x3e137248	0.14399064
55	0xbf3672fb	-0.71269196
56	0x3efa0cb1	0.48837808
57	0xbe1c82f7	-0.15284334
58	0x3cfd830a	0.030946273
59	0xbc659cc0	-0.014014423
60	0x3e9f28f9	0.31085947
61	0x3e51896d	0.2046258
62	0x3e66b778	0.22530925
63	0xbd343815	-0.043998796
64	0xbdfecc2b	-0.12441286
65	0xbf0a2fdb	-0.5397927
66	0xbe8ba4c4	-0.27274144
67	0xbedf9058	-0.43664813
68	0xbeabb713	-0.33538112
69	0x3e1eb5d1	0.15499045
70	0x3ebb8569	0.3662522
71	0xbea29257	-0.31752273
72	0x3e6519fc	0.22373194
73	0xbeef0b2d	-0.46688214
74	0x3ed4e785	0.41582885
75	0xbeee285e	-0.46515173
76	0x3e429b97	0.19004665
77	0xbf0da261	-0.55325896
78	0xbe9c8119	-0.30567244
79	0xbe3884ba	-0.18019381
80	0xbdfbd8fd	-0.122972466
81	0xbecc415d	-0.39893618
82	0x3f108d42	0.5646554
83	0x3eba95df	0.36442468
84	0x3ef83f65	0.48485866
85	0xbeb30a60	-0.34968853
86	0xbe45e706	-0.1932641
87	0xbf15d797	-0.5853209
88	0x3d37bc9f	0.044857617
89	0xbecf3299	-0.4046829
90	0xbebb772d	-0.3661436
91	0xbe91e0cc	-0.2849182
92	0x3dfac1fd	0.122440316
93	0x3eee84d0	0.46585703
94	0xbceda9fd	-0.02901172
95	0xbea50ec5	-0.3223783
96	0xbeb8d52e	-0.36100143
97	0x3d1f31b2	0.038865753
98	0x3e6ff99d	0.23435064
99	0xbe85d650	-0.2614007
100	0x3d9b6fd7	0.07589691
101	0xbeb7e483	-0.35916528
102	0xbebe803d	-0.37207213
103	0x3ea5fb40	0.3241825
104	0xbdfa9066	-0.12234573
105	0xbdec381b	-0.11534139
106	0xbe34241c	-0.175919
107	0xbea279b7	-0.31733486
108	0xbeae2c0b	-0.34017977
109	0x3dd7eff6	0.10543816
110	0xbdf42564	-0.11921194
111	0x3e11c98e	0.14237043
112	0xbed744e3	-0.42044744
113	0xbf19926d	-0.59989053
114	0x3cd7a12e	0.026321974
115	0xbebdcb2e	-0.37069076
116	0x3eeb3d76	0.45945328
117	0x3e92b345	0.28652397
118	0x3e18dc12	0.149277
119	0x3e78342c	0.24238652
120	0xbee4cfa4	-0.44689667
121	0xbeec2c3d	-0.461275
122	0x3eddde6f	0.43333766
123	0x3e51705a	0.20453015
124	0x3d3036d9	0.043021057
125	0xbe3d10b4	-0.18463403
126	0xbe62c86e	-0.2214677
127	0x3ee65b9e	0.44991773
128	0xbe69c1c7	-0.22827826
129	0xbd67b1e8	-0.05656615
130	0xbe2b5dee	-0.1673505
131	0x3e4c2aba	0.19938174
132	0xbeb9bcf4	-0.36276972
133	0xbee0ff6b	-0.43944868
134	0x3dd721ae	0.10504471
135	0x3f060b0c	0.52360606
136	0xbe9bad5d	-0.30405703
137	0x3e0e9569	0.13924183
138	0xbdecac99	-0.11556358
139	0x3e906639	0.2820299
140	0x3d75cd23	0.060010087
141	0xbe3cf8de	-0.1845431
142	0x3e0f1690	0.1397345
143	0x3e5eedf9	0.21770467
144	0xbe2601a8	-0.1621157
145	0x3e870710	0.26372576
146	0xbd11ee7a	-0.03562782
147	0x3ed88ab3	0.4229332
148	0xbe3278ed	-0.17428942
149	0x3e473f9e	0.19457862
150	0x3ee85fac	0.45385492
151	0x3e8e777c	0.27825534
152	0xbe68c36c	-0.22730798
153	0xbe0d03c1	-0.13770963
154	0x3e020e0e	0.12700674
155	0xbeb06e54	-0.34459174
156	0xbdfd0f38	-0.12356418
157	0xbdd9ba5b	-0.106312476
158	0x3ebde801	0.37091067
159	0x3d9c9430	0.07645452
160	0x3e1af80a	0.15133682
161	0xbeaffb4f	-0.3437142
162	0x3ee84696	0.45366353
163	0xbc05d586	-0.008168584
164	0xbf176719	-0.5914169
165	0xbeb3fa31	-0.35151818
166	0xbf095d16	-0.5365766
167	0x3eaf6e40	0.34263802
168	0x3e2a581e	0.16635177
169	0xbe36da34	-0.17856675
170	0x3e6d6c86	0.2318593
171	0x3e87ecf2	0.26547962
172	0x3e71a85b	0.23599379
173	0x3edbd313	0.42934474
174	0x3edf3b75	0.4360005
175	0x3e5f890f	0.21829627
176	0xbecc6bae	-0.39925903
177	0xbe5f7dce	-0.21825334
178	0xbea5df08	-0.32396722
179	0xbe355e36	-0.1771172
180	0xbf1a61f0	-0.6030569
181	0x3eac5730	0.3366027
182	0xbf064cdc	-0.5246103
183	0x3de67f14	0.11254707
184	0xbe95b6f5	-0.29241148
185	0xb993c3f9	-0.00028184036
186	0x3e354206	0.17700967
187	0x3cc8ece7	0.024527026
188	0xbe9c7090	-0.30554628
189	0xbed082bd	-0.40724745
190	0xbdac2868	-0.084061444
191	0xbea1c14b	-0.31592783
192	0x3e40fc61	0.18846275
193	0xbdac99ef	-0.08427798
194	0x3ecb8d8b	0.39756426
195	0x3efdf49c	0.49600685
196	0xbdc0feed	-0.09423623
197	0xbdf8c10b	-0.12146195
198	0x3d04ed24	0.032452717
199	0x3d69b6b9	0.057059024
200	0xbe4e7b5f	-0.2016425
201	0x3eb1e1fc	0.34742725
202	0x3f1b1489	0.6057821
203	0x3efe063b	0.49614128
204	0xbefc8da9	-0.49326828
205	0xbd9e335e	-0.07724641
206	0xbdd12a5a	-0.10213156
207	0xbe61edb0	-0.22063327
208	0xbeed1655	-0.463061
209	0xbec8b13e	-0.39197725
210	0xbe9e2f81	-0.30895618
211	0xbed438e0	-0.41449642
212	0x3e40cc6f	0.18827985
213	0xbe53e248	-0.20691788
214	0xbeace58a	-0.33768874
215	0xbedade80	-0.4274788
216	0xbe338071	-0.17529465
217	0xbe8a0c3c	-0.2696246
218	0xbe451c5d	-0.19249101
219	0xbe46e94d	-0.19424935
220	0xbdf89b5a	-0.12139006
221	0xbebd8af6	-0.3702008
222	0xbe87ee1d	-0.26548854
223	0xbe23b006	-0.15985116
224	0x3e496036	0.19665608
225	0xbe87263e	-0.26396364
226	0xbc0aebb7	-0.00847905
227	0xbe510443	-0.20411782
228	0xbebd180f	-0.36932418
229	0xbee507cc	-0.4473251
230	0xbedbba6f	-0.42915675
231	0x3e1f6a0e	0.155678
232	0x3e08cfe9	0.13360561
233	0x3ebaf4bb	0.3651484
234	0xbe6527df	-0.22378491
235	0x3ec9466b	0.39311537
236	0x3f009ec4	0.5024226
237	0x3e9be2db	0.30446514
238	0x3ddbe668	0.10737306
239	0xbe7b52a4	-0.24543244
240	0xbe89feda	-0.2695225
241	0x3e37f028	0.17962706
242	0xbeb8a0b0	-0.36060095
243	0xbea7752c	-0.32706583
244	0xbe8f1283	-0.2794381
245	0xbca1cde0	-0.01975149
246	0x3ccf9d5d	0.025343591
247	0x3e25a805	0.16177376
248	0x3ebfc28a	0.3745311
249	0xbe90a474	-0.28250468
250	0x3e996e16	0.299668
251	0xbeb138c5	-0.34613624
252	0xbe1e0d62	-0.15434793
253	0xbe365947	-0.17807494
254	0x3e3aa9cd	0.18228836
255	0x3e8467a9	0.25860336

arith.constant8 f4 [32, 64]
0	0xbea541c7	-0.32276747
1	0xbe1b0f29	-0.15142502
2	0xbe8afe1c	-0.27146995
3	0x3dd34044	0.10314992
4	0x3c76a664	0.015054319
5	0xbeb61651	-0.355639
6	0xbb979b82	-0.0046266923
7	0x3e98bad4	0.2983004
8	0x3e184e37	0.14873587
9	0xbf049761	-0.51793486
10	0xbd3a90b3	-0.045548152
11	0xbdf58681	-0.11988545
12	0xbe3c46c7	-0.18386374
13	0xbd50cb6a	-0.05097524
14	0x3e3b70e1	0.18304779
15	0x3e0d9302	0.1382561
16	0x3e38c347	0.18043242
17	0x3e36ce68	0.17852175
18	0x3dd7c8ae	0.105363235
19	0x3e8a97bf	0.27068898
20	0xbe717754	-0.23580676
21	0xbcc7e4c1	-0.02440107
22	0xbe20a7e0	-0.15689039
23	0xbd8187ba	-0.06324716
24	0x3d6fc178	0.058534116
25	0x3e9fb579	0.3119314
26	0x3e60e572	0.21962526
27	0x3dd011f6	0.10159676
28	0x3e0d13aa	0.13777032
29	0xbe61a097	-0.22033916
30	0xbd460058	-0.04834017
31	0xbdad9de3	-0.0847738
32	0x3dec7037	0.11544841
33	0x3e0a6e50	0.13518643
34	0x3d131bcc	0.03591518
35	0xbda38818	-0.07984942
36	0xbe64780d	-0.2231142
37	0x3e1ae58f	0.15126632
38	0xbeaab4da	-0.33341104
39	0xbe7cbc64	-0.2468124
40	0x3e58c893	0.21170263
41	0xbcbbd24b	-0.022927424
42	0xbdd3023c	-0.103031605
43	0xbe506c03	-0.20353703
44	0xbe2c3293	-0.16816168
45	0x3e5bc8ce	0.2146332
46	0xbf016d35	-0.5055726
47	0x3c948d1e	0.018133696
48	0x3e51bc3d	0.20481963
49	0xbd6d5417	-0.057941522
50	0x3a0a2690	0.00052700285
51	0xbccfd09c	-0.025368027
52	0xbd56a172	-0.05240006
53	0x3e97a5c8	0.2961867
54	0xbe2bdaee	-0.16782734
55	0xbe9d79c0	-0.3075695
56	0xbce55085	-0.027992496
57	0x3e7306cd	0.23733063
58	0x3de3a682	0.11115743
59	0x3c04ca63	0.008104893
60	0x3e4a46c2	0.19753554
61	0x3e03f09c	0.12884754
62	0xbd55632d	-0.052096535
63	0xbe5e6100	-0.2171669
64	0xbeaff69b	-0.34367833
65	0xbd085135	-0.03328057
66	0xbe467ef6	-0.19384369
67	0xbdbb196b	-0.091357075
68	0xbd1f644f	-0.03891402
69	0x3cdd97ba	0.027049888
70	0xbce3a178	-0.027786955
71	0x3d6aa102	0.057282455
72	0x3e122dc4	0.1427527
73	0x3d44dc1d	0.04806148
74	0xbe1bb969	-0.15207447
75	0x3eae398a	0.34028274
76	0xbe57b7f1	-0.21066262
77	0x3d3e88b5	0.046517093
78	0x3ec890f3	0.39173087
79	0x3d7c1eb9	0.061552737
80	0xbd825215	-0.06363312
81	0x3edf704a	0.43640357
82	0x3c03a30e	0.008034481
83	0x3d48c6a8	0.04901758
84	0x3c9f44d4	0.019442
85	0xbe1ea5a6	-0.15492877
86	0xbe76ef03	-0.24114613
87	0x3ea782ff	0.3271713
88	0x3e37c1dc	0.17945045
89	0xbd7649c3	-0.06012894
90	0x3e251beb	0.16123931
91	0xbe8309a6	-0.255933
92	0xbd648da1	-0.05579913
93	0xbe1e09e7	-0.15433465
94	0x3e78baaf	0.24289964
95	0xbe957442	-0.2919026
96	0xbde20a0b	-0.11037072
97	0xbc602f96	-0.01368322
98	0x3e763854	0.24044925
99	0x3e184f3e	0.14873978
100	0xbe8f28af	-0.27960727
101	0x3e7f25c5	0.24916752
102	0xbeb36277	-0.3503606
103	0xbd6b8889	-0.057503257
104	0xbdbb1a6d	-0.091359
105	0xbe83964d	-0.25700608
106	0x3e27f6d6	0.16402754
107	0x3de61012	0.11233534
108	0xbde55cea	-0.111993626
109	0x3b9d6178	0.004802879
110	0xbd2cd44f	-0.04219466
111	0x3ea19c75	0.3156468
112	0x3d9fdd1d	0.07805846
113	0x3d75f190	0.060044825
114	0xbd213caf	-0.039364513
115	0xbeab6b19	-0.33480147
116	0xbea53c92	-0.32272774
117	0xbe2f0b22	-0.1709409
118	0xbeb36e2f	-0.35045
119	0x3e69b311	0.22822215
120	0xbe02e8c7	-0.1278411
121	0x3e89e0d3	0.2692934
122	0x3e2289a7	0.15872823
123	0xbee96ddc	-0.4559163
124	0x3da7240e	0.08161174
125	0x3ebbc118	0.36670756
126	0x3b16c62b	0.00230063
127	0x3e6f2915	0.23355515
128	0x3d7069a1	0.058694486
129	0x3e2f651e	0.17128417
130	0xbe75396b	-0.23947684
131	0x3e4ec32d	0.20191641
132	0x3e5f5a18	0.21811712
133	0xbd433a6c	-0.047663137
134	0x3c235870	0.009969816
135	0xbe1e9739	-0.15487374
136	0x3e047160	0.12933874
137	0xbdb35eaa	-0.0875829
138	0xbdc6b380	-0.09702206
139	0x3e133b3d	0.14378066
140	0x3e53150c	0.20613497
141	0x3db87aeb	0.0900782
142	0xbe936cfe	-0.28794092
143	0x3d8b6ed7	0.068082504
144	0xbe2cdb6e	-0.16880581
145	0xbdddc15b	-0.10827895
146	0x3e3d6be6	0.18498191
147	0x3e88c2b8	0.2671106
148	0xbe2a4772	-0.16628817
149	0x3e35da42	0.1775904
150	0x3e451448	0.19246018
151	0xbe261fe5	-0.16223104
152	0xbda0a9e7	-0.07844906
153	0xbe07ecfd	-0.13273998
154	0xbcfe69e9	-0.031056361
155	0x3dd24385	0.102667846
156	0xbdc512f5	-0.096227564
157	0xbe0d3f70	-0.1379373
158	0xbcb4b50c	-0.022058986
159	0xbdf7cd4a	-0.12099703
160	0xbdda9d0d	-0.10674486
161	0x3e82add2	0.2552324
162	0xbdef6e04	-0.11690906
163	0xbc0dddf7	-0.008658878
164	0xbc06f6c0	-0.008237541
165	0x3d50ceda	0.05097852
166	0x3e709cbf	0.23497294
167	0xbebd4dbd	-0.36973372
168	0x3dbd2288	0.09235102
169	0xbe8f14c4	-0.2794553
170	0x3dc4608d	0.09588728
171	0xbe970f64	-0.2950393
172	0x3d0d0273	0.034426164
173	0x3d97e48b	0.07416638
174	0xbd70254b	-0.058629315
175	0x3d334d4e	0.043774895
176	0xbe6559db	-0.22397558
177	0xbe33f83e	-0.17575166
178	0xbe187b52	-0.14890793
179	0x3e2396b7	0.15975462
180	0xbe02e7f3	-0.12783794
181	0xbd58ccdb	-0.05292974
182	0x3f17973c	0.5921514
183	0xbecf7e50	-0.40526056
184	0xbe3eca4e	-0.1863186
185	0x3f4800e2	0.7812635
186	0x3e24b516	0.16084704
187	0xbe3478a9	-0.17624153
188	0xbd947da7	-0.07250529
189	0x3ea149f7	0.31501743
190	0x3d705606	0.05867579
191	0xbe89e1c7	-0.26930067
192	0xbeaf3ab9	-0.3422449
193	0xbbf49a81	-0.0074647074
194	0x3eb2741e	0.34854215
195	0x3dd730be	0.10507344
196	0x3e027751	0.12740828
197	0x3e05fc20	0.1308446
198	0xbeb1046c	-0.34573686
199	0xbdd86fd7	-0.10568207
200	0x3d201a98	0.03908786
201	0xbe539e1f	-0.20665787
202	0xbe4b2d4e	-0.19841501
203	0x3e1fab35	0.15592654
204	0x3e8882f0	0.26662397
205	0x3cd5d22e	0.026101198
206	0x3e837cfc	0.25681293
207	0xbe960377	-0.29299518
208	0x3b1e3a86	0.002414377
209	0x3dcfac89	0.1014033
210	0x3d2fbd9b	0.04290543
211	0xbc8ce9aa	-0.017201263
212	0xbe8d05bd	-0.2754344
213	0xbe84133e	-0.2579593
214	0xbea3b2e4	-0.3197242
215	0x3e0e631d	0.13904996
216	0xbe4302a8	-0.19043982
217	0x3e301618	0.17195928
218	0xbe5485c8	-0.20754158
219	0x3dfdca15	0.1239206
220	0x3e04332d	0.12910147
221	0xbe6ae3ae	-0.22938415
222	0xbe91d20c	-0.28480566
223	0xbd3d7b0f	-0.046259936
224	0x3e1657b4	0.14681894
225	0x3e743f49	0.23852266
226	0xbe0005d5	-0.12502225
227	0x3d19abd0	0.03751737
228	0xbe9708e1	-0.29498962
229	0x3da43598	0.08018035
230	0xbec0854d	-0.376017
231	0xbbedd1ba	-0.0072576674
232	0x3dad2f0e	0.084562406
233	0xbef09e9f	-0.46996018
234	0x3da16c55	0.07881991
235	0x3e72fcf3	0.23729305
236	0x3e5ceedf	0.21575497
237	0xbd8d2015	-0.06890885
238	0x3caa040b	0.020753881
239	0x3e4c4414	0.19947845
240	0x3ea9cfb0	0.33166265
241	0x3cdb36f4	0.026759602
242	0xbcaa18c9	-0.020763772
243	0x3e4d1c74	0.20030385
244	0x3dcb2cb7	0.09920638
245	0xbcc7f33a	-0.024407972
246	0xbe04ec97	-0.12980877
247	0x3dd938f5	0.10606567
248	0xbe7a9187	-0.24469577
249	0x3e920329	0.28518036
250	0x3ebdc7b9	0.3706644
251	0x3c80c461	0.01571864
252	0x3e0383c6	0.12843236
253	0x3ed9a350	0.4250741
254	0xbe8c3210	-0.27381945
255	0xbbec2d79	-0.007207569

arith.constant9 f4 [1, 1, 64]
0	0xbc3231dd	-0.010876146
1	0xbdf748a4	-0.12074402
2	0xbcacb446	-0.021082055
3	0xbe2b151e	-0.16707274
4	0xbd9f22d4	-0.07770315
5	0x3a42922a	0.0007422293
6	0x3c83b986	0.016079675
7	0xbda05c41	-0.07830096
8	0xbddd146c	-0.10794911
9	0xbe6b2dc2	-0.22966674
10	0xbd36eeaf	-0.04466122
11	0xbd93f069	-0.07223589
12	0xb9b23c0d	-0.00033995547
13	0x3ca73ff9	0.020416247
14	0xbd8671c6	-0.06564669
15	0xbc68501d	-0.014179257
16	0x39fd8379	0.00048353875
17	0xbd82c538	-0.06385273
18	0xbe175050	-0.1477673
19	0x3aa7981b	0.001278642
20	0xbd6a5539	-0.05721018
21	0xbdf41457	-0.11917942
22	0xbc39fb2c	-0.011351388
23	0x3c934b1a	0.017980147
24	0xbdd58b88	-0.10427004
25	0xbd16ae10	-0.036787093
26	0xbde1fc64	-0.11034468
27	0xbc8d4b4d	-0.01724782
28	0xbd421f2d	-0.047393013
29	0xbd156a37	-0.036478247
30	0xbd96e5b2	-0.0736803
31	0xbe0459fd	-0.12924953
32	0xbd52e64e	-0.051489167
33	0xbb3f18b7	-0.0029159018
34	0x3d046c76	0.03233
35	0x3d43863b	0.047735434
36	0xbdc31b91	-0.09526742
37	0xbc75c504	-0.0150005855
38	0xbdf463be	-0.11933087
39	0xbcb71f1a	-0.022353698
40	0xbe221838	-0.15829551
41	0xbd8d6b0e	-0.06905185
42	0xbbd1d92e	-0.0064040637
43	0xbd66feb4	-0.056395248
44	0xbb922bdd	-0.0044607953
45	0xbe3809a3	-0.17972426
46	0x3d576cce	0.052594
47	0xbc2fae70	-0.0107227415
48	0xbd97ffcc	-0.07421836
49	0xbb84fea0	-0.004058674
50	0xbd0133e9	-0.031543646
51	0xbd84fd07	-0.06493574
52	0xbddfa13f	-0.10919427
53	0xbc78aec2	-0.015178384
54	0xbd894866	-0.06703262
55	0xbd830a6c	-0.06398472
56	0x3cc713e8	0.024301484
57	0xbd2f0409	-0.042728458
58	0xbcd42de6	-0.025900792
59	0xbd7dca3b	-0.06196044
60	0xbd5afde4	-0.053464785
61	0xbe012a59	-0.1261381
62	0xbe0d16e6	-0.13778266
63	0xbdae8874	-0.0852212

arith.constant10 f4 [32]
0	0x3e953c7a	0.29147702
1	0x3e3d058c	0.18459147
2	0x3da46f34	0.08029023
3	0x3dc874d5	0.09787909
4	0x3d8c858f	0.06861412
5	0x3d91f73b	0.071272336
6	0x3e328163	0.1743217
7	0x3ec24c98	0.3794906
8	0x3e699ade	0.22812983
9	0x3e320032	0.17382887
10	0x3e3c1028	0.18365538
11	0x3eb36f9a	0.35046083
12	0x3e9be0b8	0.30444884
13	0x3e978bc9	0.29598835
14	0x3e462f5e	0.19354007
15	0x3e534ed3	0.20635538
16	0x3bb64946	0.005562934
17	0x3e290601	0.16506197
18	0x3e7f91d3	0.24957971
19	0x3e41fe0e	0.1894457
20	0x3e97089d	0.2949876
21	0x3e2fec4e	0.17179987
22	0x3e3d652e	0.18495628
23	0x3eae2f00	0.34020233
24	0x3e5f18c1	0.21786787
25	0x3d8ca480	0.068673134
26	0x3ea317c2	0.31854063
27	0x3e056a34	0.13028795
28	0x3d5f180a	0.054466285
29	0x3cdaa6e2	0.026690904
30	0x3d9bdd9b	0.07610627
31	0x3e712eb8	0.23552978

arith.constant11 f4 [12]
0	0xbca8f151	-0.020622881
1	0xbd96fa9b	-0.07372018
2	0x3d3bcbf9	0.04584882
3	0xbdc1d36a	-0.09464152
4	0x3d87f134	0.06637803
5	0xbba300a6	-0.0049744425
6	0x3dc8595a	0.097826675
7	0x3e18585f	0.14877461
8	0xbe824bd1	-0.25448468
9	0xbcf8f5bc	-0.030390613
10	0xbdf9532e	-0.121740684
11	0x3c7d98e1	0.015478344

arith.constant24 f4 [256, 64]
0	0xbe380568	-0.17970812
1	0x3be93232	0.0071165795
2	0x3dde2c49	0.108482905
3	0x3dbbba73	0.09166422
4	0xbdc72f21	-0.09725786
5	0x3e063ca0	0.13109064
6	0xbd4d76bc	-0.050162062
7	0xbdc98aa7	-0.09840899
8	0x3cf7eca1	0.0302642
9	0x3ce713f5	0.028207758
10	0xbda05f38	-0.078306615
11	0x3ca89311	0.02057794
12	0x3e50a981	0.2037716
13	0xbd5cf715	-0.053946573
14	0x3d07a4fe	0.033116333
15	0xbddcce07	-0.10781484
16	0x3dc1f1e5	0.09469966
17	0xbe8e1d75	-0.2775685
18	0x3df12aa2	0.1177571
19	0x3d782220	0.06057942
20	0x3e4ff991	0.20310046
21	0xbd0a3011	-0.033737246
22	0x3db940b3	0.090455435
23	0xbe0e94a9	-0.13923897
24	0x3c340167	0.0109866625
25	0x3cebef56	0.028800648
26	0xbd342af9	-0.043986294
27	0x3dddef3d	0.10836647
28	0xbe32b079	-0.17450131
29	0x3e86312c	0.2620939
30	0xbd8dedfb	-0.06930157
31	0xbe8b3f98	-0.27196956
32	0xbd62a470	-0.0553326
33	0x3b3f5fad	0.0029201314
34	0x3e3e53f9	0.1858672
35	0xbde782f0	-0.11304271
36	0xbe0b1b90	-0.13584733
37	0xbca95618	-0.020670936
38	0xbe4d1572	-0.20027712
39	0xbd3e20a9	-0.046417866
40	0x3d617121	0.05503953
41	0x3db2b03e	0.08725022
42	0x3e95a5b4	0.29227984
43	0x3e63c050	0.2224133
44	0xbdda0f9c	-0.106475085
45	0xbccd3814	-0.025051154
46	0xbe46246d	-0.19349833
47	0xbd83cd90	-0.06435692
48	0x3d8ab9c4	0.06773713
49	0xbccd06cb	-0.025027653
50	0x3e18e11c	0.14929622
51	0xbeb984aa	-0.36234027
52	0x3e15a85a	0.14615002
53	0x3dc6316e	0.09677397
54	0x3c815905	0.015789518
55	0x3dd6707a	0.10470672
56	0x3ddb8093	0.10717883
57	0x3df12fd8	0.117767036
58	0xbe828f4c	-0.25499952
59	0x3d929e4a	0.071590975
60	0x3e641b19	0.22275962
61	0x3d9371b7	0.07199424
62	0xbe2ee3e3	-0.1707912
63	0xbe0c22b1	-0.13685109
64	0x3e33e12d	0.17566366
65	0x3dd4ad93	0.10384669
66	0x3d74b0cc	0.05973892
67	0x3e0ba105	0.13635643
68	0xbd240cbd	-0.04005121
69	0x3b6b4a55	0.003590246
70	0x3e183ec5	0.14867695
71	0x3e403b73	0.18772678
72	0x3e0680c5	0.13135059
73	0xbdf16b0f	-0.11787998
74	0xbcf65742	-0.030070905
75	0x3ced5fa5	0.02897627
76	0x3e24a449	0.16078295
77	0x3eaeb437	0.34121868
78	0xbdef2b44	-0.11678174
79	0xbe12d028	-0.14337218
80	0x3e3d732f	0.1850097
81	0x3e82f8ba	0.25580388
82	0x3d4a6973	0.04941697
83	0xbe12923c	-0.14313596
84	0x3e48f28c	0.19623774
85	0xbd99c822	-0.075088754
86	0xbda76365	-0.08173255
87	0x3df7c13b	0.12097403
88	0x3e794d11	0.24345805
89	0x3dbe6c2c	0.09297976
90	0xbd7d62dd	-0.06186186
91	0x3da98134	0.08276597
92	0x3e5b5c5c	0.21421951
93	0x3df3c998	0.11903685
94	0x3dd5131c	0.104040354
95	0x3df4eda0	0.11959386
96	0xbdd410b4	-0.10354748
97	0x3d14d577	0.03633639
98	0x3e895173	0.26819953
99	0xbe267635	-0.1625603
100	0xbda61f9d	-0.081114985
101	0xbe0a68e2	-0.13516572
102	0x3d770f70	0.060317457
103	0x3d3f54bb	0.046711665
104	0x3df14336	0.117803976
105	0x3c6b604c	0.014366221
106	0x3e222c47	0.15837203
107	0x3d04a1ca	0.032380857
108	0x3cbcc3f6	0.02304266
109	0x3cdebfe7	0.027191116
110	0xbcdb7b10	-0.02679208
111	0x3dd45b56	0.103689834
112	0x3e4fe7d6	0.20303282
113	0xbca0107e	-0.019539114
114	0x3e2bef10	0.16790414
115	0xbddf7310	-0.10910618
116	0xbd874666	-0.06605224
117	0xbcbafd4f	-0.022825865
118	0x3e0bfaa4	0.1366983
119	0xbd323fd6	-0.04351791
120	0xbc3fda26	-0.0117097255
121	0x3d817d7b	0.063227616
122	0x3d1d9c0b	0.038478892
123	0xbdedffd9	-0.11621065
124	0xbcaf17f9	-0.021373736
125	0x3e17e7df	0.14834546
126	0x3bf0de74	0.007350737
127	0x3d6eafa4	0.058272973
128	0xbdf4c9f5	-0.11952583
129	0xbd1afc19	-0.037838075
130	0xbdcf716e	-0.10129057
131	0xbdbc03e4	-0.091804296
132	0xbe3a435c	-0.18189758
133	0x3d435785	0.047690887
134	0x3cbe1238	0.023202047
135	0x3d1adb48	0.03780678
136	0x3e8c07ce	0.27349705
137	0x3e20cb12	0.15702465
138	0xbd44da9e	-0.048060052
139	0x3df303bd	0.118659474
140	0x395d2f85	0.00021093905
141	0xbda8a50d	-0.08234606
142	0x3df9be10	0.12194455
143	0x3d9cb586	0.0765181
144	0xbe134bc6	-0.14384374
145	0x3dae9a2c	0.085255
146	0x3da846fd	0.08216665
147	0xbe316fc0	-0.17327785
148	0xbddafce4	-0.10692766
149	0xbdfba207	-0.12286764
150	0x3bab4519	0.005226743
151	0x3e07b70e	0.13253424
152	0x3ea45d46	0.32102412
153	0xbe68ff1e	-0.2275357
154	0xbd6dfd42	-0.058102854
155	0x3e358f4c	0.17730445
156	0x3e46cf39	0.19414987
157	0xbc020286	-0.007935172
158	0x3e67db40	0.22642231
159	0xbbdc1d13	-0.006717333
160	0x3d06cc4a	0.03290967
161	0xbc2d5eb0	-0.010581657
162	0x3d7404fb	0.059575062
163	0xbba7612a	-0.0051080184
164	0x3e2335b6	0.15938458
165	0xbd9605c8	-0.073253214
166	0x3cc60761	0.02417344
167	0xbe42adb7	-0.1901158
168	0x3d86c6c7	0.065808825
169	0x3d05caf9	0.032664273
170	0xbe21a3cb	-0.15785138
171	0xbd60dac8	-0.054896146
172	0x3d9236b1	0.07139338
173	0xbd52c81a	-0.051460363
174	0x3e3805e2	0.17970994
175	0xbd918ce7	-0.07106953
176	0x3e7fd9e4	0.24985462
177	0xbe1ee408	-0.15516675
178	0x3d19234a	0.03738717
179	0xbe6fa8eb	-0.23404281
180	0xbc791f88	-0.015205272
181	0xbdd57adb	-0.104238234
182	0x3d7eefd0	0.06224042
183	0x3da3f36e	0.08005415
184	0xbd414eac	-0.047194168
185	0x3d46ac0b	0.048503917
186	0xbe13c69e	-0.14431235
187	0x3e0c7f6e	0.13720486
188	0xbd06f5a6	-0.032949112
189	0x3df366d1	0.11884845
190	0x3e69376f	0.22775052
191	0xbe5a960f	-0.21346305
192	0xbc4ded15	-0.012568732
193	0x3da1017f	0.078616135
194	0xbc804c00	-0.01566124
195	0x3e016cf5	0.1263922
196	0x3e12fdc2	0.14354613
197	0xbddf48bb	-0.10902544
198	0xbda346e1	-0.079725035
199	0x3e012fc9	0.12615885
200	0x3d0d4e07	0.03449824
201	0xbd67b20c	-0.056566283
202	0x3d44435c	0.0479158
203	0x3e13c4b8	0.14430511
204	0xbd5c900f	-0.053848322
205	0x3cc3c696	0.023898404
206	0x3e089323	0.13337378
207	0xbe2d434f	-0.16920207
208	0xbeb06f45	-0.34459892
209	0xbd2d8931	-0.042367164
210	0xbd9e825c	-0.07739708
211	0x3c1a071a	0.009401107
212	0xbdccb4e8	-0.09995443
213	0x3df116ce	0.11771928
214	0xbe28fb12	-0.16502026
215	0xbcc14d5c	-0.023596458
216	0x3dc5afa8	0.096526444
217	0xbe20c512	-0.15700176
218	0x3d989ebe	0.07452153
219	0xbe1c97d3	-0.15292291
220	0x3d838053	0.0642096
221	0xbe095dc5	-0.13414676
222	0x3dad68d4	0.0846726
223	0xbdb321ff	-0.087467186
224	0x3bc77404	0.006086828
225	0xbde2a178	-0.11065954
226	0xbd070b99	-0.032970045
227	0xbde5ebd9	-0.11226625
228	0xbcb5e821	-0.022205414
229	0x3e02c376	0.12769875
230	0x3d817bf7	0.063224725
231	0xbd430f2a	-0.047621883
232	0x3df58804	0.119888335
233	0xbd95555c	-0.07291672
234	0x3df1d20e	0.11807643
235	0xbdadf158	-0.08493298
236	0x3cc4759e	0.023981865
237	0xbd999890	-0.07499802
238	0x3d8a0ff2	0.067413226
239	0x3e4844f5	0.19557555
240	0x3d09fcb1	0.03368825
241	0xbc1cb37e	-0.009564279
242	0xbe50b7c9	-0.20382608
243	0xb9f5629a	-0.00046803505
244	0x3d6e7424	0.05821623
245	0xbdb1dd20	-0.08684754
246	0x3b444980	0.0029951036
247	0xbd91685a	-0.070999816
248	0x3d050423	0.03247465
249	0xbd8e5703	-0.0695019
250	0x3da82717	0.08210581
251	0xbd243774	-0.040091947
252	0x3e18f1e7	0.14936028
253	0x3d4f3b1d	0.050593484
254	0x3d0e228e	0.034700923
255	0x3d943c8a	0.072381094

arith.constant25 f4 [256, 64]
0	0xbdc62b93	-0.0967628
1	0xbe022332	-0.12708738
2	0x3d02dc74	0.03194852
3	0xbe1126dd	-0.14174981
4	0x3dddbc2c	0.108269066
5	0x3967f82c	0.00022122328
6	0x3ce3b530	0.027796358
7	0x3d046716	0.032324873
8	0xbc7b0279	-0.015320414
9	0xbe1865d7	-0.14882599
10	0xbdcc1c71	-0.09966362
11	0xbd8e1548	-0.06937653
12	0xbe1059d5	-0.14096768
13	0xbd548d9c	-0.05189286
14	0x3d3f295d	0.046670306
15	0x3d9d064d	0.076672174
16	0xbd93929e	-0.072056994
17	0xbd99a04c	-0.07501277
18	0x3d9f0d4e	0.077662095
19	0x3d70eec9	0.058821473
20	0x3e065da9	0.13121666
21	0xbdc246d9	-0.09486169
22	0x3d947739	0.072493024
23	0x3d830c14	0.06398788
24	0x3cb36af9	0.021901594
25	0x3dcb04d9	0.09913034
26	0xbe2c9174	-0.16852361
27	0xbe8f33b6	-0.2796914
28	0xbe4d29de	-0.20035502
29	0x3cef188c	0.02918651
30	0x3e6ff1aa	0.23432031
31	0xbdcd4989	-0.10023791
32	0xbdb6485b	-0.089005195
33	0xbea5f0a8	-0.3241017
34	0x3e01379b	0.12618868
35	0xbe5756cb	-0.21029203
36	0x3be50cd2	0.0069900537
37	0xbd2f9994	-0.042871073
38	0xbe014c9b	-0.12626879
39	0xbce445c6	-0.027865302
40	0x3c4f1189	0.012638458
41	0x3d928432	0.071541205
42	0x3d910726	0.070814416
43	0x3c9013a5	0.017587492
44	0x3dcae86d	0.09907613
45	0x3cb2efbb	0.021842828
46	0xbdffcf66	-0.1249073
47	0x3e2a65c2	0.1664038
48	0xbd977752	-0.073958054
49	0x3d834d05	0.06411175
50	0x3d975847	0.073898844
51	0x3def23ed	0.11676774
52	0x3d0db9f6	0.034601174
53	0x3d91873e	0.071058735
54	0x3da8df43	0.08245709
55	0xbe666736	-0.2250031
56	0x3e858118	0.26075053
57	0xbd3a965b	-0.045553546
58	0xbe334b58	-0.1750921
59	0xbdb07a7e	-0.086171135
60	0xbe65e1d6	-0.22449431
61	0xbe4e41e1	-0.20142318
62	0x3dca66fd	0.09882925
63	0xbda1714a	-0.07882936
64	0x3d4090cf	0.0470131
65	0xbe228238	-0.15869987
66	0x3bcb308a	0.0062008547
67	0xbd851339	-0.06497807
68	0xbd50c2e7	-0.050967123
69	0x3cd7bc18	0.026334807
70	0x3d090216	0.033449255
71	0xbe0b8f45	-0.13628872
72	0x3d9cae7c	0.07650468
73	0xbdbef6d3	-0.09324422
74	0xbb1842cf	-0.002323318
75	0x3dc5f836	0.09666483
76	0x3dbe005d	0.09277413
77	0xbdea8009	-0.11450202
78	0x3e0f2ddb	0.13982336
79	0xbd73b26a	-0.05949632
80	0x3cab9111	0.020943196
81	0x3e29816c	0.16553277
82	0xbd088b61	-0.033336047
83	0xbda73936	-0.08165209
84	0xbc3d8c10	-0.011569038
85	0xbdeb0311	-0.11475194
86	0x39f07732	0.00045865175
87	0x3d4edb3d	0.05050205
88	0xbd203008	-0.039108306
89	0xbb6fabf5	-0.0036571
90	0x3e23e5d6	0.16005644
91	0xbdc21387	-0.09476381
92	0x3e07f387	0.13276492
93	0xbdcbb200	-0.0994606
94	0x3df175ab	0.117900215
95	0xbdd0da62	-0.10197903
96	0x3d917ccb	0.071038805
97	0xbe6f53f6	-0.23371872
98	0x3d5dc94d	0.054147054
99	0xbe263447	-0.1623088
100	0xbe32fc77	-0.1747912
101	0x3e2f67a0	0.17129374
102	0xbcc9b152	-0.024620686
103	0xbe83e16b	-0.25757918
104	0x3d9d71d7	0.07687729
105	0xbe1039dc	-0.14084572
106	0xbc972c54	-0.018453754
107	0x3da59ab1	0.08086146
108	0x3d263473	0.040577363
109	0xbd3a0ebf	-0.04542422
110	0xbdb7d831	-0.08976782
111	0xbc63596d	-0.013876301
112	0x3d8371f1	0.06418217
113	0xbda375d8	-0.07981461
114	0xbd385d62	-0.04501093
115	0xbd22b177	-0.039720025
116	0x3d085d13	0.033291887
117	0x3d3c8b30	0.046031177
118	0xbc59dc90	-0.013297215
119	0x3da17a6a	0.07884677
120	0x3bb0f54b	0.005400335
121	0xbdb4eb2c	-0.08833918
122	0x3cdf6d0c	0.027273677
123	0xbddcf74e	-0.10789357
124	0x3bfd8053	0.0077362447
125	0xbd3a08f9	-0.045418713
126	0xbda8bfea	-0.0823973
127	0xbe5ac0b3	-0.21362571
128	0x3e6c388e	0.23068449
129	0x3cc74322	0.024324004
130	0xbd26619e	-0.04062044
131	0x3db4f263	0.08835294
132	0x3dc83545	0.09775785
133	0xbd5e7407	-0.05430987
134	0x3e86be11	0.26316884
135	0x3e1e29e1	0.15445663
136	0xbe1c860e	-0.15285513
137	0x3d49a9db	0.049234252
138	0x3ce838a5	0.028347323
139	0x3e6263b3	0.22108345
140	0x3c5587fc	0.0130329095
141	0x3e0550e2	0.13019136
142	0xbe258acb	-0.16166227
143	0x3eaacde1	0.33360198
144	0xbcd4ba57	-0.02596776
145	0xbcf88372	-0.030336116
146	0xbccaf427	-0.024774624
147	0x3c3c6dc1	0.011500777
148	0xbd9d84db	-0.07691356
149	0x3de7d906	0.11320691
150	0xbc8cb0ae	-0.017174091
151	0xbe11f190	-0.14252305
152	0x3debeed0	0.11520159
153	0xbc990f06	-0.018683922
154	0xbe0cfd92	-0.13768604
155	0xbce901eb	-0.028443297
156	0x3e22588b	0.15854089
157	0xbd8113ca	-0.063026026
158	0x3d5016c3	0.050802957
159	0x3dc42b4f	0.09578573
160	0xbe1156d7	-0.14193283
161	0x3d7bde91	0.061491553
162	0xbd0bf624	-0.034170285
163	0x3de8bbbf	0.11363935
164	0x3c6669ca	0.014063308
165	0x3d149c35	0.036281783
166	0x3e844cab	0.25839743
167	0xbe420e43	-0.18950753
168	0xbe8255ce	-0.2545609
169	0x3dfb1302	0.12259485
170	0x3e30de50	0.17272305
171	0xbea4a0f8	-0.3215406
172	0x3d1dd272	0.038530774
173	0xbc62112f	-0.013798042
174	0x3d95e14c	0.073183626
175	0xbd896b7e	-0.06709956
176	0x3c10338c	0.008801352
177	0xbceeb686	-0.029139768
178	0xbdf72dc6	-0.120692775
179	0x3e470aa0	0.19437647
180	0xbdbd2b0a	-0.09236725
181	0xbdcb312f	-0.099214904
182	0x3d29eff2	0.041488595
183	0x3d610fc6	0.054946683
184	0x3d092b15	0.03348835
185	0x3e8a1a8f	0.26973388
186	0x3dcd066f	0.10010993
187	0x3d178a01	0.036996845
188	0x3e4d69be	0.20059869
189	0xbcebd904	-0.028790005
190	0x3deb55d6	0.11490981
191	0x3e01b7d7	0.12667786
192	0x3db959ba	0.09050317
193	0x3e097c2b	0.13426273
194	0xbb0e7ac5	-0.0021740657
195	0xbdc4d00f	-0.096099965
196	0xbe0a28e9	-0.13492168
197	0xbba7534b	-0.005106365
198	0x3d0430bf	0.03227305
199	0xbdece2d8	-0.115667045
200	0x3dd061d2	0.10174908
201	0xbb1326a1	-0.0022453445
202	0x3c7d1098	0.015445851
203	0x3e748552	0.23878983
204	0xbda8a027	-0.08233672
205	0xbd152196	-0.036408983
206	0x3dfdd2b5	0.12393705
207	0xbd6f07d3	-0.05835707
208	0xbcad5d0a	-0.021162529
209	0x3c84fbcc	0.016233347
210	0xbc28f2dd	-0.010311809
211	0xbd1dd882	-0.038536556
212	0xbd683a4c	-0.05669622
213	0xbd19599a	-0.037438966
214	0xbdeca284	-0.11554435
215	0x3dd282ef	0.1027888
216	0x3e533a35	0.20627673
217	0xbe04a762	-0.12954476
218	0x3d7c0d38	0.061536044
219	0x3e00bf57	0.1257299
220	0x3d033726	0.032035016
221	0xbe5bd00b	-0.21466081
222	0x3e3d65d7	0.1849588
223	0x3c202599	0.009774589
224	0xbe0cf481	-0.13765146
225	0xbcf1bf3e	-0.029510137
226	0xbde577e4	-0.11204508
227	0xbe2a88e3	-0.1665378
228	0x3d8c1290	0.06839478
229	0x3d57b7cd	0.05266552
230	0xbca1be80	-0.019744158
231	0xbdd36c62	-0.10323407
232	0xbe4a6cd3	-0.19768076
233	0x3dacaaa8	0.084309876
234	0xbdb684fc	-0.089120835
235	0x3d49e085	0.049286384
236	0xbd6ad67b	-0.05733345
237	0x3e233c92	0.15941074
238	0x3d0785af	0.033086475
239	0x3c58f39f	0.013241678
240	0x3e06e2ea	0.13172498
241	0x3db92718	0.0904066
242	0xbdbd5ff7	-0.092468195
243	0xbd5c14ad	-0.053730655
244	0x3dda06ce	0.10645829
245	0xbd33464d	-0.043768216
246	0xbc873310	-0.01650384
247	0x3dc4aa04	0.096027404
248	0xbe21c68f	-0.157984
249	0x3d56d4eb	0.05244915
250	0xbda4aaa5	-0.0804036
251	0xbde89791	-0.11357034
252	0xbe887745	-0.26653495
253	0x3db02d6c	0.086024135
254	0xbc132711	-0.008981482
255	0xbdbc8e3a	-0.09206815

sequential_1/lstm_1/while/lstm_cell_1/add_1/ReadVariableOp f4 [256]
0	0xbd4828c2	-0.048866995
1	0x3d4654e1	0.04842079
2	0x3debc80b	0.115127645
3	0xbd2aed29	-0.04173008
4	0xbd95caaa	-0.07314046
5	0x3ab2a040	0.001362808
6	0x3c2d0ccf	0.010562136
7	0x3cdb5637	0.026774509
8	0x3da1bb29	0.07897026
9	0x3bce2869	0.0062914384
10	0xbdd76c6c	-0.10518727
11	0xbcd43a7d	-0.025906796
12	0xbce0ddac	-0.027449451
13	0xbd19292b	-0.037392776
14	0x3cfd49b1	0.030918928
15	0xbc9078fa	-0.017635811
16	0x3c22f683	0.009946468
17	0x3a559e04	0.00081488513
18	0xbd0dddbc	-0.03463529
19	0xbd244352	-0.040103264
20	0xbc776180	-0.015098929
21	0xbccf2f01	-0.025290968
22	0xbc884624	-0.016635008
23	0x3d712ec2	0.058882482
24	0xbca54f56	-0.020179432
25	0x3c41beb6	0.011825254
26	0xbda34df7	-0.07973855
27	0x3d466740	0.04843831
28	0xbcb78e15	-0.022406617
29	0x3c72d7e5	0.014821981
30	0x3bfe17b3	0.00775429
31	0x3d7cf39c	0.06175576
32	0x3dab1131	0.083528884
33	0x3c5d2165	0.013496731
34	0x3d17978b	0.037009757
35	0xbca570fb	-0.020195475
36	0xbd1bda2c	-0.03804986
37	0xbb91809e	-0.004440381
38	0x3d6025a7	0.054723408
39	0xbd1355db	-0.03597055
40	0xbced0977	-0.028935177
41	0xbb831e54	-0.004001418
42	0xbd4cfa71	-0.050043527
43	0x3d35b334	0.044360355
44	0xbd84f962	-0.064928785
45	0xbce694e3	-0.028147167
46	0xbd3d9012	-0.046279974
47	0xbc90b461	-0.017664136
48	0x3d6d7ab7	0.057978358
49	0x3da6ab10	0.08138096
50	0x3d53cd28	0.051709324
51	0x3cfe292d	0.031025494
52	0x3d77f15c	0.060532913
53	0x3d63db5c	0.05562912
54	0x3d39a837	0.045326438
55	0xbde3d229	-0.11124069
56	0xbd9adffa	-0.075622514
57	0x3cce4c12	0.025182758
58	0xbd45d45b	-0.04829822
59	0xbd8ca3fc	-0.06867215
60	0x3dbb3fa7	0.09143
61	0xbc710b60	-0.014712185
62	0xbcaaa8cd	-0.020832444
63	0x3ce11945	0.02747787
64	0x3f7cdfd2	0.9877902
65	0x3f7eea89	0.9957662
66	0x3f8da1ec	1.106504
67	0x3f879f4e	1.0595491
68	0x3f8a091e	1.0784032
69	0x3f7d290a	0.98890746
70	0x3f8aec93	1.0853447
71	0x3f88c1ae	1.0684106
72	0x3f8d30b6	1.103049
73	0x3f83a852	1.0285742
74	0x3f70d6f8	0.94078016
75	0x3f7cb6d5	0.9871648
76	0x3f838658	1.0275373
77	0x3f844090	1.0332203
78	0x3f85954f	1.043619
79	0x3f863316	1.048434
80	0x3f861437	1.0474919
81	0x3f820bda	1.0159867
82	0x3f88d9cd	1.0691468
83	0x3f883829	1.0642139
84	0x3f804e0d	1.0023819
85	0x3f86bea2	1.0526927
86	0x3f837f24	1.0273175
87	0x3f864c4a	1.0492032
88	0x3f8e0f61	1.1098443
89	0x3f83b360	1.0289116
90	0x3f839915	1.0281092
91	0x3f8bb5a0	1.0914803
92	0x3f825e9d	1.0185124
93	0x3f829e08	1.0204477
94	0x3f735be1	0.9506207
95	0x3f853fd2	1.0410101
96	0x3f90cdf6	1.1312854
97	0x3f844177	1.0332478
98	0x3f87cd59	1.0609542
99	0x3f812263	1.0088619
100	0x3f833061	1.0249139
101	0x3f80b9ad	1.0056664
102	0x3f7ef294	0.99588895
103	0x3f85f9c9	1.0466853
104	0x3f847732	1.0348876
105	0x3f80e56f	1.0070018
106	0x3f84d03e	1.037605
107	0x3f865fae	1.0497949
108	0x3f7ed733	0.9954712
109	0x3f798367	0.9746613
110	0x3f81c2ea	1.0137608
111	0x3f8439e0	1.0330162
112	0x3f87b0a9	1.0600787
113	0x3f8a9bf8	1.0828848
114	0x3f8d8964	1.1057553
115	0x3f83843d	1.0274731
116	0x3f8f4e72	1.1195815
117	0x3f80da73	1.0066665
118	0x3f79300a	0.97338927
119	0x3f713c16	0.9423231
120	0x3f7f98b3	0.99842376
121	0x3f8342bc	1.0254741
122	0x3f8a1c10	1.0789814
123	0x3f87ccae	1.0609338
124	0x3f917818	1.1364775
125	0x3f82918f	1.0200671
126	0x3f82ed91	1.022875
127	0x3f8c0f20	1.0942116
128	0xbcc9793f	-0.024593947
129	0xbe003dfc	-0.12523645
130	0xbd29ed5d	-0.041486133
131	0xbc7010f3	-0.0146524785
132	0x3d481aad	0.048853565
133	0xbd2c7455	-0.04210313
134	0xbcee4dd9	-0.029089855
135	0x3d919fbc	0.07110545
136	0xbc4c34fc	-0.012463804
137	0xbd7b99b1	-0.06142587
138	0xbd23a0be	-0.039948218
139	0x3d1295c2	0.03578735
140	0xbd883a90	-0.06651795
141	0x3dddd1ca	0.1083103
142	0x3d1f0884	0.03882648
143	0x3d8b32cf	0.067968
144	0xbc92d30c	-0.0179229
145	0x3d5655db	0.052327972
146	0xbd6901c3	-0.056886446
147	0x3da7280c	0.08161935
148	0x3d982b0d	0.07430086
149	0x3b1f3b9e	0.002429701
150	0xbd0f0e5d	-0.034925807
151	0x3c90a941	0.017658832
152	0x3d984535	0.07435075
153	0xbd63f9ea	-0.05565826
154	0x3d091c53	0.033474278
155	0xbd2f53c5	-0.0428045
156	0x3c3273f4	0.010891903
157	0x3d526202	0.051363
158	0x3d59b19d	0.0531479
159	0x3ce7593d	0.028240794
160	0x3d9de6d8	0.077100456
161	0xbd45100c	-0.048111007
162	0x3d8a1b90	0.067435384
163	0x3d86b2f9	0.06577105
164	0x3c7146b0	0.014726326
165	0x38d6ce4e	0.000102427424
166	0xbd1cbdec	-0.03826706
167	0xbc8834f7	-0.016626818
168	0x3ce94f7a	0.02848028
169	0xbd1f7cf4	-0.038937524
170	0x3d64d754	0.055869415
171	0xbbb1890e	-0.0054179495
172	0xbda6d1ec	-0.08145508
173	0x3de386de	0.11109708
174	0xbd053ae9	-0.032526884
175	0x3d49e82e	0.04929369
176	0x3d024dd8	0.03181252
177	0xbb7e8c79	-0.0038841052
178	0xbc468335	-0.012116243
179	0x3d2d68d4	0.0423363
180	0xbd31033a	-0.043215968
181	0x3d5280c0	0.051392317
182	0xbd54a717	-0.05191716
183	0xbd9c0d7f	-0.07619762
184	0x3ced4c80	0.028967142
185	0xbc78939c	-0.015171912
186	0x3ce3e68c	0.027819894
187	0xbd5eec39	-0.0544245
188	0x3d929a0e	0.0715829
189	0xbc7e0dd8	-0.01550623
190	0xbc0b5e36	-0.008506348
191	0x3c8cde6d	0.017195905
192	0x3d592698	0.05301532
193	0x3d91299c	0.070880145
194	0x3e20a643	0.15688424
195	0xbb30e534	-0.0026992084
196	0x3acc9d9e	0.0015610938
197	0x3ceb1a1b	0.028698971
198	0x3d227ff5	0.03967281
199	0x3c81cc16	0.015844386
200	0x3e28eda3	0.16496901
201	0x3d8b6541	0.06806422
202	0xbd1e001d	-0.038574327
203	0x3d3fb69a	0.046805
204	0x3d9ff74e	0.078108415
205	0x3d37b901	0.044854168
206	0x3d6c285b	0.057655673
207	0x3ca9b674	0.020716883
208	0x3b24e318	0.0025159772
209	0x3d63ec9b	0.055645566
210	0xbc04e98e	-0.008112324
211	0x3d3140d9	0.043274734
212	0xbb181690	-0.0023206808
213	0x3df3fe67	0.11913758
214	0x3d4b5177	0.049638238
215	0x3dda0a54	0.10646501
216	0x3d7caa91	0.061686102
217	0x3dc854e4	0.097818166
218	0xbbc04a38	-0.0058682226
219	0x3e5840d5	0.21118481
220	0x3cb44b3a	0.022008527
221	0x3d082b99	0.033244703
222	0x3cb30fe1	0.021858158
223	0x3d9c5956	0.07634227
224	0x3e16f178	0.1474055
225	0x3d0e7dd6	0.034787975
226	0x3cfb0dd2	0.030646238
227	0x3ccccc33	0.024999714
228	0x3d3eb175	0.046555955
229	0x3da9dfc6	0.082946345
230	0x3d8513e9	0.06497938
231	0x3d9bb123	0.076021455
232	0x3d23ac4a	0.03995923
233	0x3d8ddc12	0.06926741
234	0xbd3141dd	-0.043275703
235	0x3d62f37a	0.05540798
236	0x3d6f5370	0.05842918
237	0x3cba5aad	0.022748316
238	0x3ba7c607	0.0051200422
239	0x3cc91f84	0.02455116
240	0x3d0a2436	0.03372594
241	0x3da90c8c	0.08254346
242	0x3d547446	0.0518687
243	0x3d1bd576	0.03804537
244	0x3c9eae64	0.019370265
245	0x3d832ba7	0.064048104
246	0x3de84ca2	0.113427415
247	0x3c48f226	0.012264764
248	0x3ccbde76	0.024886351
249	0x3e0b9490	0.13630891
250	0xbabfc3db	-0.0014630513
251	0x3de98bde	0.11403631
252	0x3df6067d	0.12012956
253	0x3d417a38	0.047235698
254	0x3cab0b6c	0.02087947
255	0x3d11365c	0.03545223
