api/activity_recognition_model500.tflite (tflite, 162264 bytes, 10 tensors)

arith.constant5 f4 [64, 1, 3, 9]
000000 91 e5 16 bd 3d 11 72 3a 7e 0e 8d bd fe 1f fd 3c
       -0.036840025 0.0009234136 -0.0688753 0.030899044
000010 e8 28 2a be 4f dd 4e bd 22 95 e5 3d ce 04 56 bd
       -0.16617167 -0.050504025 0.112100855 -0.052250676
000020 af 9c 16 be 9d 02 2f 3e 80 ed 20 be 41 e5 07 bd
       -0.14708208 0.1709084 -0.15715599 -0.033177618
000030 3d 08 6c bd f6 e1 2c be b3 ca 23 be 5c 04 07 be
       -0.057625044 -0.16883072 -0.15995292 -0.13185257
000040 0a 89 ed 3d d6 4a eb bd b8 57 a1 bc 27 1d e8 3c
       0.11598404 -0.11488883 -0.019695148 0.028334213
000050 31 d3 a6 bc 69 1a 7e bd e8 36 00 be fa 8a 9a bd
       -0.020364376 -0.062036905 -0.12520945 -0.07546039
000060 17 1e e9 3c 6e 70 12 3e af 1b 14 3e 61 25 80 3d
       0.02845673 0.14300701 0.14463685 0.062571295
000070 3f cc 10 be ff 04 92 3d db 51 2e bd 14 3a 76 bd
       -0.14140414 0.07129859 -0.042558532 -0.06011398
000080 98 7c c7 ba 97 ad ff 3d 3d 88 d2 3c 21 6e 35 3e
       -0.0015219627 0.124842815 0.02569973 0.17717792
000090 85 59 2d bd ca b4 96 3d b4 28 40 bb 94 d5 15 3d
       -0.0423217 0.073587015 -0.0029321136 0.036580637
0000a0 9c f2 0a be 80 7e b5 bd 31 8d 9f 3d a5 1c 0a be
       -0.1356911 -0.088620186 0.07790602 -0.1348749
0000b0 56 32 db 3d 0b 74 17 bd ed bd d8 bc ad 4c db bc
       0.1070296 -0.0369759 -0.026457751 -0.02676996
0000c0 a1 22 11 be 75 c6 ec 3d 39 41 dc 3d 94 75 28 3e
       -0.14173366 0.1156129 0.10754628 0.16451102
0000d0 e3 f7 a0 3c a1 d6 f5 3d 95 f5 b0 bc ac 79 1c 3e
       0.019649452 0.12003828 -0.021601478 0.15280789
0000e0 e7 0f ff 3d 8c b1 4d 3d 3c 28 66 3d 5c 28 9f 3d
       0.12454205 0.05021815 0.056190714 0.0777137
0000f0 99 c0 28 3e 14 5d fe bd a7 7e 0a bd 8f d5 f8 bd
       0.1647972 -0.12420097 -0.03381219 -0.12150108
000100 3d 94 4c 3d 95 77 0c 3e 78 68 c8 3d 54 28 e1 3d
       0.04994606 0.13717492 0.09785551 0.1099402
000110 5f 07 0b 3e db a8 27 bc 35 7a 83 3b c3 74 64 3d
       0.1357703 -0.010233129 0.004012371 0.055775415
000120 ca 71 91 bd 52 57 82 3c fe 5d ad 3d 83 46 34 bd
       -0.07101782 0.015910778 0.08465193 -0.044012558
000130 9d 46 ae bd 04 01 ab 3d b2 30 8e bd aa f5 2d bd
       -0.08509562 0.08349803 -0.06942882 -0.04247061
000140 c8 d0 12 ba f5 55 35 3e 00 aa e1 bd 5a dc 16 be
       -0.0005600569 0.17708571 -0.11018753 -0.14732495
000150 73 53 29 3e e7 e8 b3 bd 5d 51 28 3e 7c d5 36 be
       0.1653574 -0.08784657 0.16437288 -0.17854875
000160 e4 93 8f 3b bd a0 17 3e c2 fd 34 3e 21 02 24 3e
       0.0043816436 0.1480741 0.17674926 0.16016437
000170 bf d7 eb bd ed 23 c1 bd 07 bb a4 bd 8a 01 14 3e
       -0.1151576 -0.094306804 -0.08043485 0.14453712
000180 c0 be ae bd a4 11 4f be e1 ec 95 3d 63 56 0a be
       -0.085324764 -0.20221573 0.07320572 -0.13509516
000190 77 e7 a9 3d 27 bd 23 3e d2 81 00 be 5c e7 80 3c
       0.082961015 0.15990125 -0.12549523 0.01573532
0001a0 2f 1e a4 3b fc 97 53 be 25 54 0d be 39 a3 3f 3d
       0.005008481 -0.20663446 -0.1380163 0.04678652
0001b0 76 8f db 3c 47 db ec bd 5b 56 04 be fe 70 fd 3d
       0.026801806 -0.11565261 -0.12923567 0.12375067
0001c0 94 aa 14 3c 99 c3 c0 bd a6 d8 02 be d7 2c bb 3d
       0.009073872 -0.09412307 -0.12777957 0.09139412
0001d0 21 b3 db bc ef 4d 1c 3e de 8b 80 bd ec 95 61 be
       -0.026818814 0.15264104 -0.062766775 -0.22029847
0001e0 de 4c 49 bc 43 09 7e 3d 77 36 7c bc 35 8f 21 be
       -0.012286393 0.06202055 -0.015393845 -0.15777285
0001f0 99 8b b9 3d d7 53 0a 3e 01 7c 17 3b d2 9c 38 be
       0.09059829 0.13508545 0.0023114684 -0.18028572
000200 1b 48 3d be 30 8b 96 3d 20 f9 f7 bd 13 6f 00 3d
       -0.18484537 0.07350767 -0.12108064 0.03135593
000210 95 40 71 bd b8 18 63 3e 5f db fa bd 46 4a d2 bc
       -0.05889948 0.22177398 -0.12248873 -0.025670182
000220 25 b5 c6 bd 02 a4 07 3e 21 15 97 3a d2 20 45 3d
       -0.09702519 0.13246158 0.0011526683 0.048127003
000230 6b 5d cb bd 9f f6 0d be b4 ab ee 3d c8 98 0e bd
       -0.099299274 -0.1386361 0.116538435 -0.034813672
000240 c7 8f 7d 3d d8 6c 0d bd 1a c1 39 3e df 50 00 3e
       0.061904695 -0.03452763 0.18140069 0.1253085
000250 1b 6d aa 3d 9e 6d b6 3d 50 47 13 3e 68 44 d7 3d
       0.083215915 0.089076266 0.14382672 0.10511094
000260 f4 a7 be 3c 63 73 c3 3d 9e 5e d1 3d ec 37 bc bd
       0.023273446 0.09543493 0.10223125 -0.09190354
000270 e4 34 19 3d 5e 26 3a 3d 0e 35 59 bc b0 66 e7 bd
       0.037403956 0.045446746 -0.013257278 -0.11298883
000280 32 3d a5 bd 8c 7a f2 3d 10 43 34 be 53 02 86 bd
       -0.08068313 0.1183978 -0.17603707 -0.06543412
000290 16 60 be bb 60 f3 1f bd 3c 0f 33 3d 2f 7e a7 3d
       -0.005809794 -0.03905046 0.0437157 0.081783645
0002a0 5f 2b 3c be 08 e5 81 3d 74 23 ed 3d 6e fd 1d bc
       -0.1837592 0.06342512 0.11579028 -0.009642942
0002b0 a3 37 94 3a cf c7 7e bd 12 8c b5 bd 4e 9d 09 bd
       0.0011308085 -0.06220227 -0.08864607 -0.033597283
0002c0 57 7f 84 bd 25 e1 93 bb 40 79 be 39 24 cf 11 3d
       -0.06469601 -0.0045129233 0.00036329962 0.035597935
0002d0 1e ee 5b be 1a f5 26 3d 3b 4c 01 3e 05 3f b3 bd
       -0.21477553 0.04076109 0.12626736 -0.087522544
0002e0 36 73 9f bd 3d 3b 38 bd 47 89 c6 bc 46 25 b8 bb
       -0.077856466 -0.04497837 -0.02423538 -0.0056196777
0002f0 df 5b 68 3d b3 fb 64 bd 41 ee 35 3d 8d a9 cb bd
       0.05672824 -0.0559041 0.04441667 -0.099444486
000300 ad 31 ce 3d 2b 8b 28 be 2e 94 17 be 05 fe ee bd
       0.10068069 -0.16459338 -0.1480262 -0.11669544
000310 6e 8c 0a 3e bd dc f0 bd cb 9b 5e 3d a7 da 8b 3c
       0.13530132 -0.117608525 0.054347795 0.017072035
000320 68 e1 64 bb 12 51 c8 bd c3 68 06 be 5b 03 59 3c
       -0.0034924392 -0.09781088 -0.13125901 0.013245429
000330 5a 62 66 3c d0 b7 be 3d fd 45 16 bc 10 49 a6 3d
       0.014061535 0.09312403 -0.00917196 0.08119404
000340 31 5c ad 3d ae 80 4f bd 35 43 03 3d 4f c8 b3 3d
       0.0846485 -0.050659828 0.032046515 0.0877844
000350 37 a9 45 3d 5b 80 83 3d 54 89 0d be 7d 5c f5 3d
       0.04825708 0.06420966 -0.13821918 0.11980531
000360 84 59 4f bc 1b 71 b5 3d 84 d5 cd bd 2f 17 08 3e
       -0.0126556195 0.08859464 -0.100504905 0.13290094
000370 37 61 31 3e 57 85 73 3d 64 02 f7 bd 9e b2 02 3e
       0.17322241 0.059453335 -0.12061003 0.1276345
000380 38 15 33 3d db a8 7f bc f2 9e 87 bd 8f 62 1b 3e
       0.043721408 -0.015604223 -0.06622113 0.15174316
000390 d8 dd 07 be 61 62 81 3d b6 59 ef 3d 09 8c 15 be
       -0.1326822 0.063175924 0.11687033 -0.146042
0003a0 de 30 6a 3d bd 9f cc 3d c1 08 a8 bd 8d 52 01 3d
       0.05717551 0.09991405 -0.08204795 0.031572867
0003b0 b7 5a 48 bd 53 72 c0 3b e7 b9 15 3e 93 28 2f bd
       -0.048914637 0.0058730035 0.14621697 -0.042763304
0003c0 d5 9f 09 3e 43 5d e8 3c 88 69 e4 bd e1 ce a9 3b
       0.13439877 0.028364783 -0.11152941 0.0051821326
0003d0 25 24 47 be e2 d8 57 3d 62 c5 4f bd 02 2f 0e be
       -0.19447382 0.05269707 -0.05072535 -0.1388512
0003e0 75 8d 71 bd a3 e2 03 3e d8 6d 04 be 5b ef aa bd
       -0.058972795 0.12879424 -0.12932527 -0.08346435
0003f0 a2 cf c2 3b af 17 37 3d d9 59 d3 bd 7d 94 40 bb
       0.005945162 0.04470032 -0.103198715 -0.002938538

arith.constant6 f4 [64]
000000 00 00 00 00 00 00 00 00 00 00 00 00 00 00 00 00
       0.0 0.0 0.0 0.0
000010 00 00 00 00 00 00 00 00 00 00 00 00 00 00 00 00
       0.0 0.0 0.0 0.0
000020 00 00 00 00 00 00 00 00 00 00 00 00 00 00 00 00
       0.0 0.0 0.0 0.0
000030 00 00 00 00 00 00 00 00 00 00 00 00 00 00 00 00
       0.0 0.0 0.0 0.0
000040 00 00 00 00 00 00 00 00 00 00 00 00 00 00 00 00
       0.0 0.0 0.0 0.0
000050 00 00 00 00 00 00 00 00 00 00 00 00 00 00 00 00
       0.0 0.0 0.0 0.0
000060 00 00 00 00 00 00 00 00 00 00 00 00 00 00 00 00
       0.0 0.0 0.0 0.0
000070 00 00 00 00 00 00 00 00 00 00 00 00 00 00 00 00
       0.0 0.0 0.0 0.0
000080 00 00 00 00 00 00 00 00 00 00 00 00 00 00 00 00
       0.0 0.0 0.0 0.0
000090 00 00 00 00 00 00 00 00 00 00 00 00 00 00 00 00
       0.0 0.0 0.0 0.0
0000a0 00 00 00 00 00 00 00 00 00 00 00 00 00 00 00 00
       0.0 0.0 0.0 0.0
0000b0 00 00 00 00 00 00 00 00 00 00 00 00 00 00 00 00
       0.0 0.0 0.0 0.0
0000c0 00 00 00 00 00 00 00 00 00 00 00 00 00 00 00 00
       0.0 0.0 0.0 0.0
0000d0 00 00 00 00 00 00 00 00 00 00 00 00 00 00 00 00
       0.0 0.0 0.0 0.0
0000e0 00 00 00 00 00 00 00 00 00 00 00 00 00 00 00 00
       0.0 0.0 0.0 0.0
0000f0 00 00 00 00 00 00 00 00 00 00 00 00 00 00 00 00
       0.0 0.0 0.0 0.0

arith.constant7 f4 [12, 32]
000000 a5 8c 97 3c a1 85 63 be 68 b9 e6 3e ba 4b cf be
       0.018499682 -0.22218944 0.4506333 -0.40487462
000010 6c 0f 9e be 2a 02 8d 3d 7f f0 3c bd 31 c1 ac be
       -0.3087114 0.068851784 -0.046127792 -0.33741143
000020 94 d8 39 be 89 aa 18 3e 6c c2 a7 3c 85 ba 15 3c
       -0.18149024 0.14908804 0.02047845 0.009138708
000030 20 fa d1 be 28 e9 80 bd d3 44 85 be 53 1d 9d be
       -0.41011143 -0.06294471 -0.2602907 -0.30686435
000040 83 55 42 be 49 15 9d 3e d4 54 b1 be 2f 54 fe 3d
       -0.18977933 0.30680302 -0.3463503 0.124184005
000050 b5 56 92 be 6f ae fe bd 4d 58 3a 3e 16 52 18 3e
       -0.28581777 -0.12435614 0.18197747 0.14875063
000060 cd db 32 3e 0f e7 9a 3e 5e 2c 83 3d be 84 b0 be
       0.1746666 0.3025441 0.06404947 -0.34476274
000070 8f 2c be 3d fc 0f 97 bd 7d 00 86 3d 21 21 6c 3a
       0.092858426 -0.07376096 0.06543062 0.0009007622
000080 bf fd ba 3e ba 86 02 3e 46 3d 09 3e b8 05 11 be
       0.36521718 0.12746707 0.1340228 -0.14162338
000090 01 0f ab 3e db d6 8c 3e be ed 20 be 05 6f 82 be
       0.33409885 0.27507672 -0.15715691 -0.25475326
0000a0 46 14 a4 3e a1 9c bd be 51 fa 9e be 06 c3 b6 3e
       0.32046717 -0.3703356 -0.3105035 0.35695666
0000b0 42 8f 9e 3d 6b cf c8 bc 66 bf 0d be 8d 4d e1 3c
       0.07742168 -0.024512967 -0.13842544 0.0275028
0000c0 e8 c6 59 3e 03 ca d0 3e f7 e7 a0 3e a9 4d 81 be
       0.21267283 0.40779123 0.31426975 -0.25254562
0000d0 fe 01 88 be da 08 61 3c 9d 26 70 3e a3 9f f1 bd
       -0.2656402 0.0137350205 0.2345223 -0.117980264
0000e0 82 d4 6b bd 99 89 1e be 14 34 4f be 7c 3a 04 3c
       -0.05757571 -0.15482177 -0.2023471 0.008070584
0000f0 f6 0a 8b 3d e7 77 98 be a9 41 fb be cc 64 58 be
       0.067892 -0.29778978 -0.49073532 -0.21132201
000100 1a 4c dc bd 23 3e 00 3e d0 2c 41 bd 9a 28 97 3e
       -0.10756703 0.12523703 -0.047161877 0.29523164
000110 d2 27 ce 3e 70 9f 3d be a7 5b ba be e5 ed 8d 3e
       0.40264755 -0.18517852 -0.3639805 0.27720562
000120 18 6e aa bd a5 48 46 be dd f5 95 be d3 88 bf be
       -0.0832178 -0.19363649 -0.2928914 -0.37409076
000130 ee 5f 6c bd 3d be b3 3e cd 85 33 3d f4 cb 99 3e
       -0.057708673 0.35106078 0.043828774 0.30038416
000140 bd 73 1a 3e 08 73 17 3e 8f 26 4f be 3e df 9f 3e
       0.15083213 0.14789975 -0.20229553 0.31225008
000150 fc 91 79 bc c9 cf 05 bd d0 d7 bd 3e c8 ca 00 be
       -0.015232559 -0.032668862 0.37078714 -0.12577355
000160 1a ae 9a bd 37 f2 27 3e c9 51 97 be 5b c3 38 be
       -0.075527385 0.16400991 -0.29554585 -0.18043272
000170 d6 45 01 be be 7d 9f 3e 2e 4e a3 be 4b 60 47 be
       -0.12624297 0.3115062 -0.31895584 -0.19470327
000180 cb 4c ac be b0 34 d1 bd d5 2e b5 bd e3 05 f7 bc
       -0.33652338 -0.102151275 -0.08846823 -0.030154174
000190 3c 08 5d bc 81 3a 96 3d a1 8d d6 be 62 37 b7 be
       -0.013490733 0.073353775 -0.4190493 -0.3578444
0001a0 a9 f8 04 3e 3b b6 7f 3e 51 97 9f 3e 34 74 1f 3e
       0.12985481 0.24971859 0.31170133 0.15571672
0001b0 b6 86 84 3e df 40 44 3e f5 ad 2c 3e bd 90 9b be
       0.25884026 0.19165371 0.16863234 -0.30383864
0001c0 87 a9 f1 be 7b 3e 55 be ec 56 ed be 85 42 c3 be
       -0.47199652 -0.20824616 -0.4635538 -0.38136688
0001d0 ba d6 90 be e8 8f 53 bd 69 2c e9 be 91 88 98 3e
       -0.28288823 -0.05165091 -0.45541695 0.29791692
0001e0 1e f1 d5 3d b9 cc 2a 3e d6 d4 04 3e 24 43 c6 bd
       0.1044638 0.16679658 0.12971815 -0.09680775
0001f0 27 c5 86 3c e2 88 ce be 36 c9 99 be 0a f2 34 be
       0.016451431 -0.40338808 -0.30036324 -0.17670456
000200 a2 3b a5 be 51 bb dc bc 01 a5 b6 be b7 a4 37 3e
       -0.3227206 -0.026944788 -0.35672763 0.17933927
000210 b9 d2 9f be 65 01 14 be c0 6f af be 05 54 eb be
       -0.31215456 -0.14453657 -0.34264946 -0.4596254
000220 cf 54 99 3e 09 85 b0 3e 71 03 49 3e 19 b6 35 3e
       0.29947516 0.34476498 0.19630219 0.17745246
000230 32 df b9 3e 88 ae 20 be 49 a2 30 be 90 5d 8b 3e
       0.36303097 -0.15691578 -0.17249407 0.2721982
000240 29 92 96 be ad 1e e9 bb 93 4c 41 3e a1 c2 ba 3d
       -0.29408386 -0.0071142525 0.18876867 0.09119154
000250 c1 fa 62 be e9 21 0e be ca 3f 10 bd f9 03 b6 3d
       -0.22165968 -0.13880123 -0.035217084 0.088874765
000260 4d ba 1c 3e d4 15 2c 3d 85 5a 51 3d 60 2c 9e be
       0.15305443 0.042013004 0.051111717 -0.3089323
000270 7f 91 e8 3c 17 ae 5b bd 3c 1b bf be 7a dd 1d 3e
       0.02838969 -0.053632822 -0.37325466 0.15416518
000280 e3 fe 9a bd 6a fd 08 3e 86 1a e8 bc 13 93 3c 3d
       -0.07568147 0.1337792 -0.02833296 0.0460387
000290 50 a5 8e be 64 f8 69 3e 9a 3f 73 bd b1 f1 2f bc
       -0.27860498 0.2284866 -0.059386827 -0.010738776
0002a0 46 16 11 bd 23 0a c6 bd d4 4b 99 3e b8 56 96 be
       -0.035421632 -0.09669902 0.29940665 -0.29363036
0002b0 9c c9 f6 3d cd 08 88 3e 3a 75 ba 3c c2 6c 6d 3e
       0.12050173 0.26569214 0.022760976 0.23186019
0002c0 87 e4 bd be 3b 8a c3 bd 4b 64 ab be 1b 20 05 3e
       -0.37088415 -0.0954785 -0.33474955 0.13000529
0002d0 7d 3a 9f be 31 9d cf bd a5 b9 bc be 93 b1 42 be
       -0.3109931 -0.10137404 -0.36860386 -0.19013052
0002e0 f6 df 85 3c 63 b7 d8 3d ed 87 58 be 06 b6 f9 bd
       0.016342144 0.10581853 -0.21145602 -0.12192921
0002f0 4a 57 9c 3e 45 05 a1 3e 0d 96 c1 be e0 7b cf 3e
       0.30535346 0.31449333 -0.37809792 0.40524197
000300 a3 c3 41 3e c5 64 71 3e f4 fb 34 3e e0 2f 22 be
       0.18922286 0.23573597 0.17674237 -0.15838575
000310 7c 3f ab bd 43 65 bc be 97 c1 aa be f7 29 43 3e
       -0.08361718 -0.36796007 -0.33350822 0.19058977
000320 f6 cf 9b be fc f1 11 3c bd 8f 99 be 30 d5 72 bd
       -0.304321 0.008907791 -0.29992476 -0.059285343
000330 bd 46 ac be 58 5e 3d 3e 47 49 8b 3e 29 64 a7 be
       -0.3364772 0.1849302 0.27204344 -0.32693604
000340 2d 84 4a 3e 27 b3 da bd e4 11 88 3e e2 3d 8f be
       0.19776984 -0.10678702 0.2657615 -0.279769
000350 cc 2a 95 bc 3e 8a 94 3d a4 1f 97 3e 30 b0 5c 3e
       -0.018208884 0.0725293 0.29516327 0.21551585
000360 78 0d c1 3e 6a cd 84 be 2a 8e 28 bd 52 fc 07 3e
       0.37705588 -0.25937968 -0.041151203 0.13279846
000370 d3 81 af be a2 85 f2 3b 95 10 17 3e 2e ac 86 3e
       -0.34278736 0.007401184 0.1475242 0.26303238
000380 74 f2 05 be 0f 9f d5 bc 07 93 2e 3e 3a 50 fb 3d
       -0.1308077 -0.026076822 0.17048274 0.122711614
000390 7e 50 e3 bd 95 ad 9b 3d 8b d1 23 be d4 64 af be
       -0.11099337 0.076014675 -0.15997903 -0.34256613
0003a0 94 1f c9 be d1 37 80 bd 7b 67 83 be 59 00 c2 3e
       -0.39281905 -0.06260646 -0.25664887 0.3789089
0003b0 f0 b9 d1 3d 65 25 1f 3e 8a 5c 6f 3e 77 1b bd bd
       0.10240543 0.15541609 0.23375145 -0.09233754
0003c0 6f aa e4 be 6a e2 5c be 92 c8 e5 3d c4 dd ea bd
       -0.4466128 -0.21570745 0.112198964 -0.1146808
0003d0 43 d7 b6 be a2 d9 44 be ed 1b 11 3e 7c fa 95 bd
       -0.35711107 -0.19223645 0.14170809 -0.07323167
0003e0 53 98 77 3d 4f d3 85 3e 5d f1 45 3e e6 3a ae be
       0.060448002 0.26137778 0.19330354 -0.3402931
0003f0 8d f6 8f 3e 10 49 7e 3e 33 ef dd be 96 df 4b 3e
       0.2811779 0.24832559 -0.43346557 0.1990951

arith.constant8 f4 [32, 64]
000000 df 98 37 be 5f e9 5d 3e 92 a8 51 bd 5e d3 84 bd
       -0.1792941 0.21671055 -0.05118615 -0.064856276
000010 d3 18 45 3e f4 2e 54 3e d7 af c5 bd d7 04 7b 3d
       0.19247751 0.20721036 -0.096526794 0.061283913
000020 c8 7e 14 bd 49 9e 2a bd 85 2d 23 3d 59 bb 62 3e
       -0.03625372 -0.04165486 0.039838333 0.2214178
000030 e2 d9 32 b9 40 04 fa bc dd d1 01 bd a6 a3 e1 bd
       -0.0001705657 -0.030519605 -0.03169428 -0.110175416
000040 f1 34 86 3d 5b 7e a7 3b 15 28 23 be 12 ec 3c 3e
       0.065530665 0.0051114983 -0.15933259 0.18449429
000050 73 70 64 3e 84 10 a4 bd 48 4c 06 be 5f 19 35 3d
       0.22308521 -0.080109626 -0.13115036 0.04421365
000060 55 7c e9 bd 88 1a 1e 3e 34 15 1e be cc 89 e4 3d
       -0.114006676 0.15439808 -0.15437776 0.11159095
000070 4e 43 0c 3e 50 f6 1c 3e 19 77 4f 3e c9 7b dc bd
       0.1369755 0.15328336 0.20260276 -0.10765798
000080 3b bc 83 bd e6 1f 29 3e 75 13 26 bd 75 9f f1 bd
       -0.064323865 0.16516075 -0.0405459 -0.11797992
000090 b7 a4 dc 3d 30 d1 06 bd 29 eb 27 3e fc 8e 50 be
       0.10773604 -0.03291434 0.163983 -0.20367044
0000a0 80 cc 56 3d 23 31 4b bd 1f 64 f6 3d 84 b7 1a be
       0.05244112 -0.049607407 0.12030815 -0.15109068
0000b0 a2 d5 7e 3d 73 2b 65 3e 25 51 4d be b1 79 a8 bd
       0.062215455 0.22379856 -0.20050485 -0.08226336
0000c0 44 b5 a6 bd d5 37 34 3d 41 b4 72 be 6c 28 83 bd
       -0.081400424 0.043998558 -0.23701574 -0.06404194
0000d0 63 cb 22 bd 12 aa 00 3e 73 26 52 3c 34 cf 5b 3d
       -0.039744746 0.12564877 0.01282655 0.0536644
0000e0 7a 09 36 be 7a f0 6c 3e a0 c7 69 bc 49 10 01 3d
       -0.17777053 0.2313861 -0.014268786 0.03150967
0000f0 cd 90 f1 3d 3a 7d 54 3c 7d e2 62 3e 0f 32 48 be
       0.11795197 0.012969309 0.22156711 -0.19550346
000100 e5 a9 2a be 55 fc 1d be f6 22 b1 bd 2f 3b 54 3e
       -0.16666372 -0.15428288 -0.086492464 0.20725702
000110 6f 65 dc bd dc f3 48 3d 98 b0 e0 3c 95 6d 12 be
       -0.107615344 0.049060687 0.027427956 -0.14299615
000120 6e e6 14 3e 1a c5 4a 3d 8c 5d 90 3e 9d ec 73 be
       0.14541027 0.049504377 0.2819637 -0.2382073
000130 fd fb 25 be e1 31 11 3e 61 c7 94 bc ee 16 50 be
       -0.16209407 0.14179184 -0.018161478 -0.20321247
000140 8a 8f 3b be b3 78 cb bd ed 98 90 3e d3 1b ed 3c
       -0.18316475 -0.09935131 0.28241673 0.028943932
000150 5d 70 1e be 31 29 2e be d0 88 95 3d 5a f5 36 be
       -0.1547255 -0.17007901 0.073014855 -0.17867032
000160 d7 e0 12 3e da 24 22 be 52 63 62 3e ca 78 95 3e
       0.14343582 -0.1583437 0.221082 0.29193717
000170 f0 97 80 3e ce 64 5e 3e fc 6b c4 3c ce e2 0b 3e
       0.2511592 0.21718141 0.023977272 0.13660738
000180 b3 fe 4d 3e 54 64 85 be 83 f0 25 bd c3 79 06 be
       0.20116691 -0.26053107 -0.040512573 -0.13132386
000190 83 f7 7a 3e da 44 49 be 74 6b 3f be b4 1d aa 3e
       0.2450848 -0.19655171 -0.18693334 0.33225787
0001a0 63 8c 24 3d fe d4 04 be ff 2f 3c be dc 89 54 3e
       0.040172946 -0.12971875 -0.18377684 0.20755714
0001b0 4a 7e 0d 3e f5 7a 7f 3e 87 64 02 be 51 b0 9a be
       0.13817707 0.24949248 -0.1273366 -0.30212644
0001c0 5a ba 82 be 11 7d 99 3e 88 f0 30 be e6 66 6b be
       -0.255328 0.2997823 -0.17279255 -0.22988471
0001d0 00 e8 9a bd 5e e3 81 3e 87 ef 8e 3e 3c 6f 3a bc
       -0.07563782 0.2536878 0.2791712 -0.011379059
0001e0 12 39 38 3e 1d db aa bd 48 7f 3b bd cc 6c 22 bc
       0.1799052 -0.08342574 -0.04577568 -0.0099136345
0001f0 c7 e5 2a 3d 10 2a 52 3e 13 3e 97 be 77 9e 10 bc
       0.04172304 0.20523858 -0.29539546 -0.008826843
000200 6e 4f 9d 3d c3 b1 d3 bd f6 9c 21 be a1 9b 50 3e
       0.07681166 -0.1033664 -0.15782532 0.20371868
000210 18 e7 ff 39 b9 c4 d8 bd 59 2a e8 3d a7 0c cf bd
       0.00048809568 -0.10584397 0.11336202 -0.10109835
000220 da 3a de bd 4e 8c 7b be a2 4e 1e 3e d8 41 12 be
       -0.10851069 -0.2456524 0.15459684 -0.1428293
000230 a2 88 ae be cb d8 05 3e 56 7d 73 bd 15 38 0f be
       -0.34088618 0.13070981 -0.0594457 -0.13986237
000240 09 56 84 be c1 6b 4c be 05 1a 14 be 13 15 02 be
       -0.2584689 -0.1996298 -0.1446305 -0.12703352
000250 c8 2f 9a 3d 1f a6 d1 3d 6a 93 86 be 13 0d f8 3d
       0.07528645 0.10236763 -0.26284343 0.12111869
000260 a1 7a 05 be b2 1e 96 3e f8 75 49 be 46 01 4a 3e
       -0.1303506 0.29320294 -0.19673908 0.19727048
000270 46 75 b9 bd f6 94 42 be fb 50 da bd 69 78 f8 3d
       -0.09055571 -0.19002137 -0.10659977 0.121323414
000280 bf a4 b3 3a 60 65 ea bd 11 3d 85 3e bd ff 6e 3e
       0.0013705714 -0.11445117 0.26023152 0.23339744
000290 0d 61 cf bd b4 b3 e7 bd c4 5e 59 be bd 19 2d be
       -0.10125933 -0.113135725 -0.21227556 -0.1690435
0002a0 fa 8f 29 be e9 62 82 bd 25 64 d2 bd 3b 90 26 3d
       -0.16558829 -0.06366522 -0.10273007 0.040664893
0002b0 e4 62 08 bc 94 22 5f 3d 3b 9c 93 be d8 50 b8 3d
       -0.008324359 0.054476336 -0.28830132 0.08999795
0002c0 c8 1a 96 be 17 06 24 3e 6f 98 18 be af 57 64 be
       -0.29317307 0.16017948 -0.14901899 -0.22299074
0002d0 00 19 6d bd 6a 9e 16 3d d5 d0 ef 3d 85 33 9c 3c
       -0.05788517 0.03677217 0.117097534 0.019067535
0002e0 fe 2b 57 3e b4 de 12 be 35 03 ad 3d 16 06 6d be
       0.21012875 -0.14342767 0.08447877 -0.23146853
0002f0 52 e9 34 3e 3c 79 7b be 3f 6a 2b bc c7 91 ec bd
       0.1766713 -0.24557966 -0.010462343 -0.11551242
000300 81 0a 0d bd 96 ff 8e be 01 a1 16 bd a3 76 c8 3d
       -0.034433845 -0.27929372 -0.03677464 0.09788253
000310 e0 d7 fd 3d 94 e4 89 bd 29 01 0e 3e 4f c7 db 3d
       0.123946905 -0.06733051 0.1386763 0.107313745
000320 a0 5f 26 3d 6d 8d 4f be 6f 9e bf bb 4c 88 ea 3c
       0.04061854 -0.20268793 -0.005847744 0.028629445
000330 13 96 b9 3d 37 27 b8 bd 41 74 81 3e f7 33 94 bd
       0.090618275 -0.08991855 0.25284007 -0.07236474
000340 71 2e 3e 3c f4 c7 c0 3d fe 61 dc 3d 90 7e 3f 3e
       0.011607752 0.09413138 0.10760878 0.18700624
000350 b1 c1 2c 3e 75 7e 61 3e 86 ef 9f 3d 20 20 04 3d
       0.16870762 0.22020896 0.07809357 0.0322572
000360 1d 96 05 3e 06 15 dd bd ad 83 04 3e f2 ce 09 be
       0.13045545 -0.107950255 0.12940855 -0.1345785
000370 ef 8f 5d 3e 9c 6d 72 3e ce 95 2c 3e c5 cc 13 be
       0.21636938 0.23674625 0.16854021 -0.14433582
000380 70 ef 22 be 3e d6 99 be 0c d4 83 3d d4 42 ae 3c
       -0.1591165 -0.30046266 0.06436929 0.0212721
000390 88 f3 85 3d 66 14 97 3e fd 10 80 be 54 1f 04 3d
       0.065405905 0.2950775 -0.2501296 0.03225644
0003a0 68 69 84 3d 29 90 1e be ec 65 58 be 11 5d d7 3d
       0.06465417 -0.1548468 -0.2113263 0.10515798
0003b0 d1 45 2e be 98 c0 2c 3e 89 27 49 3e 2f a5 86 be
       -0.1701882 0.16870344 0.19643988 -0.262979
0003c0 35 1c 56 bd 56 26 62 3e a5 0c 35 be 70 75 50 3e
       -0.052272994 0.22084936 -0.17680605 0.20357299
0003d0 37 04 84 3d 58 bb 9e bd 43 ab b2 ba 92 7d 19 3e
       0.064461164 -0.07750577 -0.0013631362 0.14989308
0003e0 57 d5 0d be 1c dd 3b be 25 42 f7 3d d7 28 1c 3e
       -0.13850914 -0.18346065 0.12073163 0.15249954
0003f0 50 aa 3a bd a1 1e b2 3d 0f 70 53 be 44 b9 c3 3d
       -0.04557258 0.08697248 -0.20648216 0.09556821

arith.constant9 f4 [1, 1, 64]
000000 d8 30 47 3d 71 f7 4c 3c a2 94 0a 3d e1 e0 dd 3c
       0.048630565 0.0125101665 0.033833154 0.02708477
000010 77 9d 7e bc 4f 56 a9 3b 0e 3a 55 3c eb 9c 06 3d
       -0.015540472 0.0051677595 0.01301433 0.032864492
000020 35 14 93 3c b6 8f 16 3b a3 e2 76 bc f7 90 61 3c
       0.017953971 0.0022973842 -0.015068683 0.0137674725
000030 85 76 d2 3b 38 5b e9 3c 28 1c c6 bb f0 32 b0 3b
       0.00642282 0.02848588 -0.006045837 0.005377166
000040 a4 90 ab bc 64 e5 06 bd f5 65 82 bc 0c 66 13 3d
       -0.020942993 -0.032933608 -0.015917758 0.03598599
000050 ac 07 80 bc f5 bf f7 bc 2b 51 87 3d 74 1d ce bb
       -0.015628658 -0.0302429 0.066072784 -0.006290132
000060 72 24 16 3d c0 53 53 3c 77 22 23 3d 0e 7a 4b 3d
       0.03665585 0.0128983855 0.03982779 0.049676947
000070 4a 31 a6 3c a6 42 df 3c cb 12 13 3d 6f 39 2c 3c
       0.020287175 0.02725346 0.035906594 0.01051174
000080 8f 6a 93 3c 62 7e b5 bc 3a da 13 3d 24 5e 48 3c
       0.017995147 -0.02215499 0.03609679 0.012229476
000090 f5 f2 c3 bc ed 19 fc 3a e8 c7 01 bc 32 68 44 3d
       -0.023919562 0.0019233801 -0.0079211965 0.04795093
0000a0 99 c8 0a 3c 3f 93 d0 3c 16 2d 43 3d 6f cd 95 bc
       0.008470678 0.025460837 0.04765042 -0.018286435
0000b0 83 8d 50 bc b2 f2 77 bc 00 4e 35 3d 6e c3 e8 bc
       -0.0127290515 -0.015133547 0.04426384 -0.0284135
0000c0 29 4c 3b 3d b2 18 20 3d ee 37 e1 3c 3b 04 06 bd
       0.04572693 0.03908605 0.02749249 -0.03271888
0000d0 5c 94 47 3d 21 38 eb bb fd 50 03 3d 24 ea 1d 3d
       0.04872547 -0.007178322 0.03205966 0.038553372
0000e0 77 37 96 3c 0f f5 59 bd 29 ee 8d 3b 6f 0c ab 3b
       0.018336995 -0.05321222 0.0043313694 0.005219988
0000f0 bd f9 5f bb 94 5e 9c bc 71 7f e7 bc 8f 0a 6d bb
       -0.0034175955 -0.019088067 -0.028259011 -0.0036169623

arith.constant10 f4 [32]
000000 f3 80 0b bb 4c 48 54 3c 03 c9 02 3d 8b 5a 0b 3d
       -0.0021286577 0.01295669 0.03192998 0.034021895
000010 78 b6 db 3d 75 f6 a3 3d 9f a2 e3 3d 32 bd 59 3d
       0.107281625 0.08005992 0.11115002 0.053158946
000020 12 83 8d 3c 35 b8 9b 3d 3b ac 86 3d de 1f 55 3d
       0.017274413 0.07603494 0.06575819 0.052032344
000030 a4 36 07 3d b9 f4 12 bc 6e 15 17 bd 41 c6 73 3d
       0.033011094 -0.008969479 -0.03688567 0.05951524
000040 9e 34 8b 3d 7d 43 f7 3d 20 f3 35 3d 8e 4d 49 3c
       0.06797145 0.12073419 0.044421315 0.012286557
000050 15 67 43 3c 39 8e 77 bc 6a 06 88 3d 07 8d 89 3c
       0.011926432 -0.015109592 0.066418484 0.01679088
000060 0d e0 79 3d 11 ad b8 3d b9 86 88 3d 59 56 4b 3c
       0.061004687 0.09017385 0.06666321 0.012410724
000070 b7 fd 40 3d 29 68 dd 3c b3 87 60 3b 04 0b f1 3c
       0.04711696 0.027027206 0.003426057 0.029424198

arith.constant11 f4 [12]
000000 b5 83 1c 3d a3 69 ba 3c 37 ae 8f ba c3 ea 79 bd
       0.038211543 0.02275545 -0.0010961954 -0.0610149
000010 c5 7a d8 3b 1b d2 88 3c ee 47 a9 bd 5e e8 57 bb
       0.006606432 0.016701749 -0.082656726 -0.0032944898
000020 95 51 ce 3a e0 45 01 3d 7e 2c 10 bc a9 a9 25 3d
       0.0015740866 0.03156078 -0.00879967 0.040445004

arith.constant24 f4 [256, 64]
000000 58 35 b0 bc 54 19 74 bd ef 7d 0c 3e ac 46 e4 bd
       -0.021509811 -0.059594467 0.13719915 -0.11146292
000010 3a 52 2b bd 0a 45 bd 3d fd 26 83 bd bf ef f4 bc
       -0.041826464 0.09241684 -0.06403921 -0.029899476
000020 b2 39 ad 3d 65 4c 2e bd 63 93 e2 bd 73 e6 04 3e
       0.0845827 -0.042553324 -0.11063268 0.12978534
000030 0d 9c fc bd 3f 86 93 3d b1 fe bc bd 64 65 da 3d
       -0.12334452 0.0720334 -0.09228266 0.1066387
000040 4b af 6c bd a3 7b 61 bd b7 84 f8 bc d3 72 0e be
       -0.05778436 -0.05504955 -0.03033672 -0.1391099
000050 1d a0 00 3d c2 bc ad bd b0 cd c0 3d 5f 4e 18 be
       0.031402696 -0.08483268 0.09414232 -0.14873646
000060 c3 a1 fb 3a ba 25 a5 3d 1d 86 fb bd 99 c0 1d bd
       0.0019197989 0.080638364 -0.122814395 -0.038513754
000070 70 16 c3 bd 3f 7b 55 bd 90 51 fe 3c 60 72 1c 3e
       -0.09525764 -0.05211949 0.031044751 0.15278006
000080 24 25 b0 bd 06 29 5e 3c 74 91 ee bc 0b d3 40 3c
       -0.08600834 0.013559585 -0.029122092 0.011769067
000090 6b 25 c8 bd 23 bd 55 3d 95 eb d8 3d 3e 32 c1 3b
       -0.09772762 0.052182328 0.10591809 0.005895882
0000a0 75 62 13 be e5 56 c1 3d 88 e4 dd bc 10 f0 0b bc
       -0.14393027 0.09440402 -0.027086511 -0.008541122
0000b0 ac 97 d2 bc 60 b5 a2 bd 01 67 d5 bd 00 cc 9b 3c
       -0.025707088 -0.07944751 -0.10420037 0.019018173
0000c0 98 95 43 3d 48 60 0c be a4 7b a4 bd 9f c3 1e bc
       0.047750086 -0.13708603 -0.08031395 -0.009690194
0000d0 69 85 2f 3d 5b 0c 84 bd 73 55 13 3d 9d 2a 02 3e
       0.04285184 -0.06447669 0.035970163 0.12711568
0000e0 f8 df 22 be fa e5 01 be 01 87 25 3c 93 ee d3 bc
       -0.1590575 -0.12685385 0.010102988 -0.025870597
0000f0 f3 aa 56 3d 88 4d c6 bb 87 5e b7 bd 74 01 d8 3b
       0.052409124 -0.006051723 -0.089535765 0.00659197
000100 a5 af a5 bd 9e c3 ce 3d 4f bd df 3c 02 fb 07 3e
       -0.08090142 0.10095905 0.027311949 0.13279346
000110 a7 05 e4 bd 97 e5 59 bd 25 e3 90 3c 35 40 e0 3d
       -0.111338906 -0.05319747 0.017686436 0.109497465
000120 b7 5d c2 3d dd d8 05 3e d6 a0 e4 3d f8 36 73 3d
       0.09490531 0.13071008 0.111634895 0.059378594
000130 00 20 15 3c 86 55 5a bd 25 34 ff 3d 92 e0 36 3d
       0.009101868 -0.053304218 0.12461118 0.04464776
000140 78 98 ab 3d 30 8d 89 bc 8e 82 8c bd 2c 41 86 3d
       0.083786905 -0.016790956 -0.06860839 0.06555399
000150 f2 ae 3c bd f8 99 1d 3d d0 5a 06 3e 1d a0 b1 bd
       -0.04606528 0.038476914 0.1312058 -0.08673117
000160 bd c3 0e bd 49 cd b7 3d 36 91 36 bd 4b 9e 98 bd
       -0.03485464 0.08974702 -0.044572078 -0.07452067
000170 b3 bd 41 3d 7d 6e 7c bd 7f c2 2e bd c2 5e 60 bd
       0.047300052 -0.061628807 -0.042665955 -0.054777868
000180 97 16 fe bd 37 7f 6f 3d 43 d1 9a 3d 15 39 a9 3d
       -0.124066524 0.05847093 0.07559445 0.08262841
000190 37 58 51 3c 0f 9e 78 3c d1 dd b9 bd cb 43 aa 3c
       0.01277738 0.015174403 -0.09075511 0.02078428
0001a0 4a c9 cc bd af 72 f6 3d d5 3c 5a bd 6d 27 a2 bb
       -0.0999933 0.12033593 -0.05328067 -0.0049485476
0001b0 15 12 e7 bd c8 9b 4d 3d ae c3 72 3d 15 2b 9b bd
       -0.11282746 0.050197393 0.059268646 -0.075765766
0001c0 6c 88 8c 3d a8 b0 e0 3d 47 f9 cc 3d a6 ae d9 3d
       0.06861958 0.109711945 0.100084834 0.10629015
0001d0 5b 59 6e bb 38 7a 12 bd 72 77 08 3d 63 97 ba bb
       -0.0036369178 -0.035761088 0.033317037 -0.0056943162
0001e0 4d ca f3 3d ec c4 4f bc f5 87 94 bd 43 d9 68 3d
       0.1190382 -0.012681227 -0.07252494 0.056847822
0001f0 74 fe 6d bd 8d 46 e8 3d cb ff 22 3e b1 17 2a 3d
       -0.058103994 0.113415815 0.1591789 0.0415265
000200 98 d9 30 bd c7 0e f1 3d 70 a8 d9 3d 2b 34 52 3c
       -0.043176264 0.11770397 0.1062783 0.012829821
000210 93 e9 3e 3e 45 85 5e bd 5e f3 bd 3d 50 a7 f7 3d
       0.18643789 -0.054326314 0.09274934 0.12092459
000220 64 f5 77 3d 04 98 ad 3d a3 80 38 bd 01 24 76 bc
       0.060536757 0.0847626 -0.045044553 -0.015023232
000230 93 d8 8b bd 25 f8 65 3d 9e e7 8e 3c 28 2c 70 bd
       -0.06828418 0.056144852 0.017444428 -0.05863586
000240 5d c8 07 3d 3a ca 27 bd d7 d5 8a bd f7 ef 00 3e
       0.033150066 -0.040964343 -0.06779068 0.1259154
000250 d6 b1 29 3d a1 4c c5 3d 54 a4 4c bd 89 65 aa bd
       0.041429363 0.096337564 -0.049961403 -0.083201475
000260 d1 d1 0f 3e 3a 25 0e 3d a0 85 c3 3d 9d 71 98 3d
       0.14044882 0.03470347 0.09546971 0.07443545
000270 fb 44 60 bd 99 43 9a 3b 66 43 4c 3e e8 4a 37 3e
       -0.054753285 0.0047077653 0.19947585 0.17899668
000280 63 a7 8c bd 95 3c bf bd d5 85 3a 3e 0d b1 bf bd
       -0.06867864 -0.09337727 0.18215115 -0.09359942
000290 9e 4e 0b 3e 03 66 03 3d 66 80 04 be a7 c3 27 3d
       0.13604209 0.032079708 -0.12939605 0.040958073
0002a0 8c c7 8e 3d 5f 05 d2 bb a8 a5 2f 3e f0 37 2c 3c
       0.06971654 -0.0064093317 0.17153037 0.010511383
0002b0 88 b7 1d bd f0 de 1d 3e 9a 1b 41 ba bc 7e 08 3d
       -0.038505107 0.15417075 -0.00073664787 0.03332399
0002c0 d1 3d 0a 3e 3d cf 0d 3d 7d a5 85 bd 1c a8 1e 3d
       0.13500144 0.034621466 -0.06525705 0.03873454
0002d0 5c 21 b6 bd c1 24 90 3d c4 cf 13 3e f7 c1 2b bd
       -0.088930815 0.0703826 0.14434725 -0.041933026
0002e0 93 7a 04 3d f9 f7 93 3d 72 80 46 3d ff 65 02 3e
       0.03234346 0.072250314 0.04846234 0.12734221
0002f0 40 dc bc 3c 19 9d fc 3d 82 ea cb 3d e3 1b 5e 3d
       0.023054242 0.123346515 0.09956838 0.054225814
000300 c1 88 38 3e a7 ff ec 3c 9c 2d 0a 3e 9f 8e 30 3d
       0.18020917 0.028930498 0.13493961 0.043104764
000310 e5 72 df bc fc 90 a7 bb 79 b2 f4 bd e2 4d 83 bd
       -0.027276466 -0.005113719 -0.119481035 -0.06411339
000320 ee 6a 99 3d 13 91 be bc 47 5a 06 3e f0 20 94 3d
       0.07491098 -0.023262536 0.13120376 0.07232845
000330 7b 0c 7f bd 9f f2 3e 3e 37 57 24 bd ae 06 12 3d
       -0.06226776 0.1864724 -0.040122237 0.0356509
000340 88 ba e1 bd 5a 19 3d 3e 47 b2 e5 bd f8 fb 39 3e
       -0.11021906 0.18466702 -0.11215644 0.18162525
000350 d0 b5 c3 bd 98 cf d5 3d 6f 52 d9 3c 98 89 bb bd
       -0.09556162 0.10439986 0.026528565 -0.09157103
000360 80 cd 2c bd e9 cd 34 bd 55 4b 34 3d 96 b0 8d bd
       -0.042188168 -0.044141684 0.044017155 -0.06918447
000370 0a d9 8c bc 3e 11 a6 3d 3a 01 21 3e b5 6c 97 3d
       -0.017193336 0.081087574 0.15723124 0.07393781
000380 4d d1 8e 3d 76 04 a7 bc 7f 89 77 bd 41 04 8a bd
       0.06973515 -0.02038787 -0.06043386 -0.067390926
000390 f0 0e bb bc 40 b6 e3 3d 26 1e aa 3c d3 fe af bd
       -0.022834271 0.11118746 0.020766329 -0.08593526
0003a0 c3 ca 91 bd a6 1a b4 3d 67 44 ea bc 1f 00 a5 bd
       -0.07118752 0.08794145 -0.02859707 -0.08056664
0003b0 d2 2b aa bd 03 d4 11 3d 59 ea d9 3d ed 19 d9 3d
       -0.08309139 0.03560258 0.106404014 0.10600648
0003c0 2a fe bc 3c 7a b8 9a 3d 86 81 67 3d 2e 9a c4 3c
       0.023070414 0.07554717 0.056520008 0.0239993
0003d0 5d 21 be 3c 5f c8 04 3e bb 15 6c bc 8b 96 e0 3d
       0.023209268 0.1296706 -0.014409478 0.10966214
0003e0 ca b2 f4 3d 44 8b fe bd 5d 35 f6 3c 47 2e 14 be
       0.11948164 -0.124289066 0.030054742 -0.14470778
0003f0 f8 75 2c bd 23 45 a1 3d b3 45 c0 3d 24 52 63 bd
       -0.04210469 0.07874515 0.09388294 -0.055498257

arith.constant25 f4 [256, 64]
000000 5b 60 ba 3d f4 a2 a7 bd 84 4d 92 3b 40 ad 3d 3e
       0.091004096 -0.08185378 0.004464807 0.18523121
000010 be 52 0d 3c af bc a1 3d 35 73 8f bd 9b 13 e1 3d
       0.008625684 0.07897317 -0.07004396 0.109900676
000020 74 b5 c7 3d f4 40 db ba ad 6e 6f 3d fd ca ed 3d
       0.09751406 -0.0016727732 0.058455158 0.116109826
000030 64 ca ec bd 9b c7 9d bc 5c ce 98 3d 55 35 f1 3c
       -0.115620404 -0.019260218 0.07461235 0.029444376
000040 f8 97 2e bd 1a a1 9a bd 23 e6 3a 3d bd 41 3b bd
       -0.042625397 -0.07550259 0.04562963 -0.04571699
000050 74 d3 16 bc 89 33 a7 3c a0 7d 37 bd 3b 39 97 bd
       -0.009205688 0.020410316 -0.04479754 -0.07383963
000060 f1 31 3a 3e 28 5d 80 3d 7b 69 8f 3d 61 f3 86 3d
       0.18183114 0.06267768 0.07002541 0.065893896
000070 1b 95 58 3b c6 96 f3 b9 a0 9c 29 bb e4 ab eb 3c
       0.0033047858 -0.00046460907 -0.002588071 0.028768487
000080 6b 3e 76 3d b1 59 a3 bd 6a f7 38 3e b7 78 6b bd
       0.06011812 -0.07976092 0.18063131 -0.05748817
000090 d6 87 9e 3d af 33 d8 3d ed 84 b1 bd 09 52 07 bd
       0.077407524 0.10556733 -0.08667932 -0.03303722
0000a0 96 ec 12 bd 8a 55 2e be 02 37 e0 3c af 24 03 3e
       -0.035870157 -0.17024818 0.02736998 0.12806962
0000b0 f1 c5 ab 3d e8 99 29 3d 9b fb 0a 3b 10 cd 59 be
       0.08387364 0.041406542 0.0021207097 -0.21269631
0000c0 97 11 0b 3d 1a cc 10 3e 6c 79 9f bd 46 88 9e bc
       0.03395232 0.14140359 -0.07786831 -0.01935209
0000d0 36 43 88 3e 82 64 cd 3a 2d 43 19 bd 00 b5 71 bc
       0.26613778 0.0015670212 -0.03741758 -0.014752626
0000e0 0d a6 7e bd ad 01 75 bd a6 9e 18 bc 7b 74 b7 3c
       -0.062170077 -0.05981605 -0.0093151685 0.02239441
0000f0 27 94 4f bd e8 90 8f bd 0e 66 f7 3b 2e c7 74 3d
       -0.0506784 -0.070100605 0.0075500077 0.059760265
000100 60 fe 8f 3d 9f ba 93 3d 72 f2 a9 bd 21 54 88 bc
       0.0703094 0.072133295 -0.08298196 -0.016641678
000110 9a 34 4d bd e0 e4 83 bd 76 3c cb 3d 28 c9 8b 3d
       -0.050098993 -0.06440139 0.099236414 0.06825477
000120 25 b0 ad 3d 99 c9 16 3d 93 e0 67 3d b7 57 da 3b
       0.084808625 0.036813352 0.056610655 0.0066632885
000130 1e 12 8f bc 0d 2e 48 3d 3a dd 0a bd 5b 9d 7b bd
       -0.017464694 0.048872042 -0.033902384 -0.061429363
000140 20 f0 09 bd 68 70 10 3d ed ae a1 bd 3a c1 d9 bd
       -0.033676267 0.03526345 -0.078946926 -0.10632558
000150 1c 9d 9e bd 0b 70 75 3d 09 39 3b bd 06 68 e6 3d
       -0.0774481 0.059921306 -0.04570869 0.1125031
000160 3a 98 5c 3d a2 5a 84 bd b8 a5 86 3d 4c 38 72 3c
       0.053856112 -0.06462599 0.06574577 0.01478393
000170 c1 44 c8 3d 85 21 a4 bc fd 7b 4c 3d b2 38 0b bc
       0.09778739 -0.020035515 0.049922932 -0.008497404
000180 13 8c 14 3e 39 6e 8e 3c 9c c9 1e be a9 95 92 bd
       0.14506559 0.017386543 -0.15506595 -0.07157452
000190 11 1c 81 bd 9d e4 20 bd 75 72 b1 bd fe 16 10 bb
       -0.06304181 -0.039280523 -0.08664409 -0.002198636
0001a0 36 71 2a be 1c f0 18 be 7f 73 10 3d 00 ba 6a bd
       -0.16644749 -0.14935344 0.035266396 -0.05730629
0001b0 6c 15 1e bd 2b 6a ad bd a0 05 06 3c e5 11 92 3d
       -0.03859465 -0.084675156 0.008180052 0.07132319
0001c0 fe 36 97 3d 44 cb fd bd 8f 3a be 3d 6f 23 ca bd
       0.07383536 -0.123922855 0.09288513 -0.0987004
0001d0 90 c3 45 bd 88 f2 9d 3d ea 04 7d 3d 19 a0 57 3d
       -0.048282206 0.07712275 0.061772265 0.052642915
0001e0 3e 3f 24 3d c8 e5 02 3d ee 83 86 bd 5f 3f 80 3d
       0.040099375 0.031957418 -0.06568132 0.06262087
0001f0 a2 de fe bd 9c 3f b7 3d 11 c1 af 3d c4 df d3 bc
       -0.124448076 0.089476794 0.08581746 -0.025863536
000200 d2 27 61 bd 4c 49 36 3c 32 13 c4 bc 09 f6 ab 3b
       -0.054969616 0.011125874 -0.023934934 0.0052478355
000210 5c ac 7b 3d 61 c0 ed bc 23 85 61 bd 28 95 b7 bc
       0.06144367 -0.029022397 -0.05505861 -0.02240999
000220 48 2e ab 3b 23 d7 dc 3d c1 5c 0d 3e eb 84 de bd
       0.005224023 0.107832216 0.13804914 -0.10865196
000230 24 48 00 3e 17 ec 5b bc 1c 62 cf bc d8 52 04 3d
       0.1252752 -0.013422987 -0.025315337 0.03230557
000240 1b f2 6e bd ff 8e 90 bd 17 ec 72 3c a4 02 28 3d
       -0.05833636 -0.07058524 0.014826796 0.041018143
000250 5c 1a 5b 3d a1 ca bc 3d bc d0 2a 3d f7 b1 21 bd
       0.053491935 0.09218336 0.04170297 -0.03947636
000260 23 14 47 3c 5d 5c cb bc f2 67 b0 3d 7a fb f6 3c
       0.012150797 -0.024824316 0.08613576 0.03014921
000270 4b b7 10 3d a8 b3 03 3e 35 0c 30 bd d0 45 8f 3d
       0.03533105 0.12861502 -0.04298039 0.069957376
000280 2b f6 ac 3d 70 53 98 3d e3 a3 14 3e 2f ff 90 bd
       0.0844539 0.074377894 0.14515643 -0.070799224
000290 6c 79 9d bc e2 ca 3f 3d 82 a9 1f 3b 97 32 39 3c
       -0.019222938 0.046824344 0.002436251 0.011303565
0002a0 2b 0c 73 bd 24 24 75 bd 21 a2 ce 3d fa e7 a7 bd
       -0.059337776 -0.05984892 0.100895174 -0.08198543
0002b0 e2 ee 2e 3e db f5 78 3c 79 02 5c 3d e5 96 35 3b
       0.17083314 0.015195335 0.053713296 0.0027708348
0002c0 2f 06 c4 bd 4e 06 75 3d 22 3c 95 3c 50 fd c4 bd
       -0.09571492 0.059820466 0.01821715 -0.09618628
0002d0 c4 c0 fa 3d 93 a6 23 bd be 8a 1f 3d 29 d2 9f 3d
       0.122437984 -0.03995378 0.038950674 0.07803757
0002e0 77 2e ed 3b 47 6c 52 bb fc b0 ac bd c7 74 be bc
       0.007238205 -0.0032107995 -0.084321946 -0.023249043
0002f0 5e ac 5b bd f3 4a 05 bd 55 c7 c1 3c 85 23 d6 bc
       -0.05363118 -0.03254218 0.02365462 -0.026139984
000300 80 0e 04 bd 51 77 0d bd 70 2a 44 bc 1b ac 08 3c
       -0.03224039 -0.034537617 -0.0119730085 0.008341814
000310 16 91 1e bc 29 80 36 bd d2 e0 55 3d 5e 9b a6 3c
       -0.009678146 -0.044555817 0.05221636 0.020337757
000320 6e 61 a1 3c b0 70 d2 3d b7 33 86 3b 4c 77 21 bd
       0.019699778 0.102754 0.0040955204 -0.03942041
000330 3a 9c 06 3e 97 08 51 3e 40 b6 05 3d dc 3d 0a be
       0.13145533 0.20413433 0.03264451 -0.1350016
000340 99 93 05 3e 56 99 fc 3d a6 6c ee 3c e6 d7 30 3d
       0.13044585 0.12333934 0.029104542 0.043174647
000350 54 e8 3f bd cd 08 cc bc d4 2d 79 bd 17 22 f5 bc
       -0.046852425 -0.02490654 -0.06083472 -0.029923482
000360 2b f1 89 3d 5a bc a6 bd e6 33 9d 3d 39 06 d4 bc
       0.06735452 -0.08141394 0.076759145 -0.025881873
000370 f0 ab d8 3d d7 f7 15 be 75 49 a1 3c 78 17 f5 3b
       0.105796695 -0.14645325 0.019688347 0.0074796043
000380 0d 72 25 3d ba 4e 45 bd a9 24 8f 3b e4 3b e1 bc
       0.04039197 -0.048170783 0.004368384 -0.027494378
000390 ac 38 81 3d e0 26 35 3e c6 c0 6e bd 93 67 9c bd
       0.063096374 0.17690611 -0.05828931 -0.07636943
0003a0 1c 29 6c 3c d7 af 26 3d db 72 bd 3d 96 0d cf 3c
       0.014414098 0.040695038 0.092504226 0.025275033
0003b0 46 2d af 3d 0b 9b ad 3d 04 7d 18 3d d9 ac 8b 3c
       0.08553557 0.08476838 0.0372286 0.017050194
0003c0 50 0b 93 bd 41 0e cd 3d d3 bf 7b 3b 68 8f 91 3d
       -0.07179892 0.10012484 0.0038413897 0.07107431
0003d0 49 3f 05 3d 5e 76 89 3d 00 40 1e 3e f5 8d 20 bd
       0.032531057 0.0671203 0.15454102 -0.03919788
0003e0 0a d0 0f 3d b3 c8 37 3d d9 8f df bb e7 82 8d 3c
       0.03511051 0.044869136 -0.006822568 0.017274333
0003f0 3b 96 2a 3e 8c cc 93 bd 85 bb f6 3d 76 52 8d 3d
       0.16658871 -0.072167486 0.12047485 0.06900494

sequential_1/lstm_1/while/lstm_cell_1/add_1/ReadVariableOp f4 [256]
000000 c2 fe 05 3c 39 c2 24 3d 9c cf 73 3d 8c cf 93 3c
       0.008178415 0.040224288 0.059524164 0.018043302
000010 5d 5a 15 3d 66 15 ad 3c 6d a5 72 3d 1f 61 1d 3d
       0.03646313 0.021128368 0.059239794 0.0384227
000020 26 6a 84 3c 7f 3e b5 3d 24 dd 22 3d bc 99 63 3d
       0.016163897 0.08849811 0.039761677 0.055566534
000030 36 3e 35 3d 28 61 f7 3c 17 8c 20 bb ee ab 51 3d
       0.044248782 0.030197695 -0.0024497563 0.051189356
000040 72 a2 bf 3c 0b f2 84 3d 20 dc 07 3d a2 b7 28 bb
       0.02339289 0.064914785 0.033168912 -0.002574422
000050 9a ae 4a 3d a8 39 10 3c 40 02 33 3d 04 d5 8f 3d
       0.04948292 0.008802809 0.043703318 0.070230514
000060 04 1f 70 3d 4c 97 45 bc 87 a8 b7 bb 1b 56 b2 bc
       0.05862333 -0.012059998 -0.005604807 -0.021769574
000070 c8 21 96 3c 02 ec 2b 3c 8e 7d d6 3c af d2 ba 3c
       0.018326655 0.01049328 0.026182916 0.02280554
000080 63 5b 3f 3d 9c 22 8f 3c 2a b6 d2 3c 15 be c3 bc
       0.046718013 0.017472558 0.025721628 -0.02389435
000090 f6 19 c3 3c 0b 4c 69 3d 01 9d f2 bc 3a 2f 82 3c
       0.02381609 0.056957286 -0.02961588 0.01589166
0000a0 60 6e cb bc 41 67 b7 3c 6d f7 7a 3d c3 29 69 bb
       -0.024832904 0.022388102 0.06127112 -0.003557787
0000b0 a7 1e 0e 3d 7a d2 04 3d 12 02 b9 3b 67 7a 35 3d
       0.0346972 0.03242729 0.0056459988 0.044306185
0000c0 c1 e6 8c 3d 1b 84 d9 3c cd 91 eb 3c 08 f3 05 3d
       0.0687995 0.02655225 0.028756047 0.032702476
0000d0 76 ec e5 3c 25 c8 bf 3c d8 ea 3d 3a 7f 63 45 3d
       0.028066855 0.023410866 0.0007244772 0.04819059
0000e0 ad da 24 3d 95 6e 05 3d f5 51 7a 3d 5c f4 7e 3d
       0.040247608 0.032576162 0.061113317 0.062244758
0000f0 45 a5 c8 3c 7f 9e de 3c 2d 8c 62 3d 69 73 4c 3d
       0.02449287 0.027175186 0.055309463 0.04991475
000100 65 69 87 3f b1 d9 86 3f f8 78 8b 3f d7 4f 87 3f
       1.0579039 1.0535184 1.0896292 1.057124
000110 c8 9b 83 3f 79 3d 84 3f 87 05 89 3f 72 52 87 3f
       1.0281916 1.033126 1.0704812 1.0572035
000120 0d 25 89 3f 8c d2 8e 3f 62 a3 87 3f 5f 9a 87 3f
       1.0714432 1.1158004 1.0596735 1.0593985
000130 57 7f 88 3f d3 6b 83 3f 73 53 83 3f ba f5 85 3f
       1.0663861 1.026728 1.0259842 1.0465615
000140 f5 2f 87 3f 58 62 8b 3f 01 4c 85 3f 3e 8c 84 3f
       1.056151 1.0889387 1.041382 1.0355299
000150 9c 8e 86 3f fb 83 82 3f b7 8d 86 3f 54 9f 88 3f
       1.0512271 1.0196527 1.0511998 1.0673623
000160 73 46 89 3f 79 69 7f 3f f3 27 7f 3f 30 00 7d 3f
       1.0724624 0.99770314 0.9967033 0.9882841
000170 6e f1 82 3f bd 0f 84 3f 10 a1 83 3f 36 7e 89 3f
       1.0229928 1.0317303 1.0283527 1.0741642
000180 f9 d8 86 3f 39 29 83 3f 5c 9d 89 3f a3 4f 84 3f
       1.0534965 1.0246955 1.0751147 1.0336803
000190 c7 ae 84 3f 33 32 89 3f a9 de 7d 3f 6c 27 86 3f
       1.0365838 1.0718445 0.9916788 1.0480781
0001a0 9c e0 79 3f f2 e1 82 3f 88 3d 88 3f 45 1b 85 3f
       0.9760835 1.0225203 1.0643778 1.0398947
0001b0 90 52 84 3f dd 7b 84 3f cf 8a 80 3f a7 14 89 3f
       1.0337696 1.03503 1.0042361 1.0709428
0001c0 3f 94 87 3f 61 21 86 3f 39 93 85 3f f5 5a 86 3f
       1.0592116 1.0478936 1.0435554 1.0496508
0001d0 99 70 83 3f 49 53 82 3f 40 c9 83 3f cb c0 86 3f
       1.0268737 1.0181667 1.0295792 1.0527586
0001e0 56 58 86 3f ff 90 86 3f 49 c1 88 3f 7b ea 88 3f
       1.0495708 1.0512999 1.0683986 1.0696558
0001f0 88 82 83 3f d2 8f 86 3f 2c 5d 86 3f 87 32 89 3f
       1.027421 1.051264 1.0497184 1.0718545
000200 dc ce ba bc 7d a5 f7 3b f3 e8 2b 3c 03 1b ba 3c
       -0.022803716 0.0075575695 0.010492551 0.022717958
000210 33 26 2b 3d 40 43 43 3c 92 fc 12 3c d0 bd fb 3b
       0.041784476 0.011917889 0.00897135 0.0076825395
000220 ff 89 7d bb 93 d7 57 3d 22 46 39 3d a3 66 f9 3a
       -0.0038686988 0.052695822 0.0452329 0.001902778
000230 ce 1c 63 3b 1f 7f 2c bd 80 7b 2f bd a6 45 18 3c
       0.003465462 -0.04211342 -0.04284239 0.009293949
000240 f7 e7 8b bc 30 92 13 bc 79 e1 eb 3c d3 8f a4 3c
       -0.017078383 -0.009007022 0.028794037 0.020088112
000250 5a 8c f4 3b f0 19 11 bd ff 1e 2b bd a3 27 61 3c
       0.0074630203 -0.035425127 -0.041777607 0.01374236
000260 62 7c 98 bc 1e 5e eb 3c 71 5f a8 bc 98 59 d9 b8
       -0.018613998 0.028731402 -0.020553323 -0.000103640545
000270 1f 6b 2c 3c 97 1d b8 3c a8 54 37 bc ac 3d 16 3b
       0.0105235865 0.022475047 -0.011189617 0.0022924943
000280 24 ed d9 3c 2a 61 4f 3c 25 42 c7 bb 98 47 dd bc
       0.026602335 0.012657443 -0.006080883 -0.027011678
000290 07 e3 c1 bc 84 a3 ac bc 08 4b bc 3c 20 26 c8 bc
       -0.023667825 -0.021074064 0.022984996 -0.024432242
0002a0 f7 3c bd 3c ca ca 35 3c 07 2b 07 3d c6 3a 07 bd
       0.02310036 0.011095712 0.03300002 -0.033015035
0002b0 dd f5 92 bc a2 d3 00 bd 87 21 70 bc 89 71 df 3c
       -0.017939502 -0.03145183 -0.014656431 0.027275817
0002c0 09 17 59 bc 78 59 84 bb 81 73 17 bc 65 02 44 bd
       -0.013250121 -0.004038986 -0.009243847 -0.047853846
0002d0 a4 67 9c 3c 7d 18 ab 3c cf d6 97 bc 88 74 01 3d
       0.019092388 0.0208857 -0.018535046 0.031605273
0002e0 0f 21 d8 bb ea 0a 4f bd 49 8f 41 3c 6e cc fa bc
       -0.0065957378 -0.050547518 0.011813947 -0.030615058
0002f0 5e aa b2 bb 0e e3 55 bc 10 c2 de bb 61 f0 cc bc
       -0.0054524383 -0.013054622 -0.0067980364 -0.025016965
000300 96 56 4e 3d fe d4 a9 3d 79 08 72 3d f0 92 3a 3d
       0.050375544 0.08292578 0.05909011 0.045550287
000310 db d9 10 3d b3 4f 3a 3d a0 80 ae 3d 70 65 92 3d
       0.035364013 0.045486163 0.08520627 0.07148254
000320 35 84 b0 3c 3b ae 52 3d 57 46 5d 3d 8c 18 9c 3d
       0.021547416 0.05143569 0.05402216 0.076218694
000330 f2 06 06 3d f1 85 86 3d 16 e0 15 3d e5 3e ba 3d
       0.032721467 0.06568516 0.036590658 0.090940274
000340 1a 9d 53 3d e2 b1 c0 3d 79 d0 42 3d 6d 31 39 3d
       0.051663496 0.094089285 0.047562096 0.04521315
000350 82 16 4d 3d 0d 59 1a 3d be d0 41 3d 42 34 ab 3d
       0.050070293 0.03768258 0.047318213 0.08359577
000360 dd 51 91 3d 6e e1 7a 3c a1 f1 11 b9 be 8a cb bb
       0.07095692 0.015312536 -0.00013918291 -0.0062116077
000370 e8 b5 19 3d cf 21 31 3d 87 a7 1f 3d c2 62 90 3d
       0.037526995 0.043245133 0.038978126 0.070500866
000380 96 79 37 3d 05 48 d9 3c c7 ec 70 3d 82 69 77 3b
       0.044793688 0.0265236 0.05881956 0.0037752097
000390 12 64 46 3d a5 ae b9 3d 5c ce b7 3b 44 bd 21 3d
       0.04843528 0.09066514 0.0056093168 0.03948714
0003a0 86 6b a3 ba 89 c7 1a 3d 49 a2 0f 3d 73 20 e9 3c
       -0.0012467958 0.037787948 0.035066877 0.028457856
0003b0 75 6e 1c 3d f6 86 48 3d 68 27 cc 3c 26 33 76 3d
       0.038191278 0.048956834 0.024921134 0.060107373
0003c0 84 68 b7 3d 4e e6 15 3d 9f 0d d5 3c 83 1d 80 3d
       0.08955482 0.03659659 0.026007472 0.06255629
0003d0 9d c7 0a 3d df 39 98 3c ff 62 b9 3c 3a 90 3d 3d
       0.033881772 0.018582283 0.022630213 0.046280123
0003e0 c9 fc 72 3d c7 a4 57 3d 1c 31 4d 3d 58 88 97 3d
       0.059323106 0.05264738 0.050095662 0.073990524
0003f0 21 60 95 3d 1d cb 99 3d ac 0d 86 3d c5 e3 6b 3d
       0.07293726 0.07509444 0.065455765 0.057590265
